{"keras_version": "2.2.0", "config": {"layers": [{"config": {"dtype": "float32", "batch_input_shape": [null, 10, 19, 19], "sparse": false, "name": "input_5"}, "inbound_nodes": [], "name": "input_5", "class_name": "InputLayer"}, {"config": {"activation": "linear", "data_format": "channels_last", "use_bias": true, "kernel_initializer": {"config": {"scale": 2.0, "mode": "fan_in", "distribution": "normal", "seed": null}, "class_name": "VarianceScaling"}, "bias_regularizer": null, "padding": "same", "bias_initializer": {"config": {}, "class_name": "Zeros"}, "name": "init_conv_block", "dilation_rate": [1, 1], "activity_regularizer": null, "kernel_constraint": null, "kernel_size": [3, 3], "kernel_regularizer": null, "trainable": true, "bias_constraint": null, "strides": [1, 1], "filters": 256}, "inbound_nodes": [[["input_5", 0, 0, {}]]], "name": "init_conv_block", "class_name": "Conv2D"}, {"config": {"momentum": 0.99, "axis": 1, "beta_initializer": {"config": {}, "class_name": "Zeros"}, "moving_mean_initializer": {"config": {}, "class_name": "Zeros"}, "epsilon": 0.001, "gamma_constraint": null, "name": "init_batch_norm", "center": true, "gamma_initializer": {"config": {}, "class_name": "Ones"}, "gamma_regularizer": null, "scale": true, "trainable": true, "beta_constraint": null, "moving_variance_initializer": {"config": {}, "class_name": "Ones"}, "beta_regularizer": null}, "inbound_nodes": [[["init_conv_block", 0, 0, {}]]], "name": "init_batch_norm", "class_name": "BatchNormalization"}, {"config": {"trainable": true, "name": "init_relu", "activation": "relu"}, "inbound_nodes": [[["init_batch_norm", 0, 0, {}]]], "name": "init_relu", "class_name": "Activation"}, {"config": {"activation": "linear", "data_format": "channels_last", "use_bias": true, "kernel_initializer": {"config": {"scale": 2.0, "mode": "fan_in", "distribution": "normal", "seed": null}, "class_name": "VarianceScaling"}, "bias_regularizer": null, "padding": "same", "bias_initializer": {"config": {}, "class_name": "Zeros"}, "name": "0_conv_block", "dilation_rate": [1, 1], "activity_regularizer": null, "kernel_constraint": null, "kernel_size": [3, 3], "kernel_regularizer": null, "trainable": true, "bias_constraint": null, "strides": [1, 1], "filters": 256}, "inbound_nodes": [[["init_relu", 0, 0, {}]]], "name": "0_conv_block", "class_name": "Conv2D"}, {"config": {"momentum": 0.99, "axis": 1, "beta_initializer": {"config": {}, "class_name": "Zeros"}, "moving_mean_initializer": {"config": {}, "class_name": "Zeros"}, "epsilon": 0.001, "gamma_constraint": null, "name": "0_batch_norm", "center": true, "gamma_initializer": {"config": {}, "class_name": "Ones"}, "gamma_regularizer": null, "scale": true, "trainable": true, "beta_constraint": null, "moving_variance_initializer": {"config": {}, "class_name": "Ones"}, "beta_regularizer": null}, "inbound_nodes": [[["0_conv_block", 0, 0, {}]]], "name": "0_batch_norm", "class_name": "BatchNormalization"}, {"config": {"trainable": true, "name": "0_relu", "activation": "relu"}, "inbound_nodes": [[["0_batch_norm", 0, 0, {}]]], "name": "0_relu", "class_name": "Activation"}, {"config": {"activation": "linear", "data_format": "channels_last", "use_bias": true, "kernel_initializer": {"config": {"scale": 2.0, "mode": "fan_in", "distribution": "normal", "seed": null}, "class_name": "VarianceScaling"}, "bias_regularizer": null, "padding": "same", "bias_initializer": {"config": {}, "class_name": "Zeros"}, "name": "1_conv_block", "dilation_rate": [1, 1], "activity_regularizer": null, "kernel_constraint": null, "kernel_size": [3, 3], "kernel_regularizer": null, "trainable": true, "bias_constraint": null, "strides": [1, 1], "filters": 256}, "inbound_nodes": [[["0_relu", 0, 0, {}]]], "name": "1_conv_block", "class_name": "Conv2D"}, {"config": {"momentum": 0.99, "axis": 1, "beta_initializer": {"config": {}, "class_name": "Zeros"}, "moving_mean_initializer": {"config": {}, "class_name": "Zeros"}, "epsilon": 0.001, "gamma_constraint": null, "name": "1_batch_norm", "center": true, "gamma_initializer": {"config": {}, "class_name": "Ones"}, "gamma_regularizer": null, "scale": true, "trainable": true, "beta_constraint": null, "moving_variance_initializer": {"config": {}, "class_name": "Ones"}, "beta_regularizer": null}, "inbound_nodes": [[["1_conv_block", 0, 0, {}]]], "name": "1_batch_norm", "class_name": "BatchNormalization"}, {"config": {"trainable": true, "name": "1_relu", "activation": "relu"}, "inbound_nodes": [[["1_batch_norm", 0, 0, {}]]], "name": "1_relu", "class_name": "Activation"}, {"config": {"activation": "linear", "data_format": "channels_last", "use_bias": true, "kernel_initializer": {"config": {"scale": 2.0, "mode": "fan_in", "distribution": "normal", "seed": null}, "class_name": "VarianceScaling"}, "bias_regularizer": null, "padding": "same", "bias_initializer": {"config": {}, "class_name": "Zeros"}, "name": "2_conv_block", "dilation_rate": [1, 1], "activity_regularizer": null, "kernel_constraint": null, "kernel_size": [3, 3], "kernel_regularizer": null, "trainable": true, "bias_constraint": null, "strides": [1, 1], "filters": 256}, "inbound_nodes": [[["1_relu", 0, 0, {}]]], "name": "2_conv_block", "class_name": "Conv2D"}, {"config": {"momentum": 0.99, "axis": 1, "beta_initializer": {"config": {}, "class_name": "Zeros"}, "moving_mean_initializer": {"config": {}, "class_name": "Zeros"}, "epsilon": 0.001, "gamma_constraint": null, "name": "2_batch_norm", "center": true, "gamma_initializer": {"config": {}, "class_name": "Ones"}, "gamma_regularizer": null, "scale": true, "trainable": true, "beta_constraint": null, "moving_variance_initializer": {"config": {}, "class_name": "Ones"}, "beta_regularizer": null}, "inbound_nodes": [[["2_conv_block", 0, 0, {}]]], "name": "2_batch_norm", "class_name": "BatchNormalization"}, {"config": {"trainable": true, "name": "2_relu", "activation": "relu"}, "inbound_nodes": [[["2_batch_norm", 0, 0, {}]]], "name": "2_relu", "class_name": "Activation"}, {"config": {"activation": "linear", "data_format": "channels_last", "use_bias": true, "kernel_initializer": {"config": {"scale": 2.0, "mode": "fan_in", "distribution": "normal", "seed": null}, "class_name": "VarianceScaling"}, "bias_regularizer": null, "padding": "same", "bias_initializer": {"config": {}, "class_name": "Zeros"}, "name": "3_conv_block", "dilation_rate": [1, 1], "activity_regularizer": null, "kernel_constraint": null, "kernel_size": [3, 3], "kernel_regularizer": null, "trainable": true, "bias_constraint": null, "strides": [1, 1], "filters": 256}, "inbound_nodes": [[["2_relu", 0, 0, {}]]], "name": "3_conv_block", "class_name": "Conv2D"}, {"config": {"momentum": 0.99, "axis": 1, "beta_initializer": {"config": {}, "class_name": "Zeros"}, "moving_mean_initializer": {"config": {}, "class_name": "Zeros"}, "epsilon": 0.001, "gamma_constraint": null, "name": "3_batch_norm", "center": true, "gamma_initializer": {"config": {}, "class_name": "Ones"}, "gamma_regularizer": null, "scale": true, "trainable": true, "beta_constraint": null, "moving_variance_initializer": {"config": {}, "class_name": "Ones"}, "beta_regularizer": null}, "inbound_nodes": [[["3_conv_block", 0, 0, {}]]], "name": "3_batch_norm", "class_name": "BatchNormalization"}, {"config": {"trainable": true, "name": "3_relu", "activation": "relu"}, "inbound_nodes": [[["3_batch_norm", 0, 0, {}]]], "name": "3_relu", "class_name": "Activation"}, {"config": {"activation": "linear", "data_format": "channels_last", "use_bias": true, "kernel_initializer": {"config": {"scale": 2.0, "mode": "fan_in", "distribution": "normal", "seed": null}, "class_name": "VarianceScaling"}, "bias_regularizer": null, "padding": "same", "bias_initializer": {"config": {}, "class_name": "Zeros"}, "name": "4_conv_block", "dilation_rate": [1, 1], "activity_regularizer": null, "kernel_constraint": null, "kernel_size": [3, 3], "kernel_regularizer": null, "trainable": true, "bias_constraint": null, "strides": [1, 1], "filters": 256}, "inbound_nodes": [[["3_relu", 0, 0, {}]]], "name": "4_conv_block", "class_name": "Conv2D"}, {"config": {"momentum": 0.99, "axis": 1, "beta_initializer": {"config": {}, "class_name": "Zeros"}, "moving_mean_initializer": {"config": {}, "class_name": "Zeros"}, "epsilon": 0.001, "gamma_constraint": null, "name": "4_batch_norm", "center": true, "gamma_initializer": {"config": {}, "class_name": "Ones"}, "gamma_regularizer": null, "scale": true, "trainable": true, "beta_constraint": null, "moving_variance_initializer": {"config": {}, "class_name": "Ones"}, "beta_regularizer": null}, "inbound_nodes": [[["4_conv_block", 0, 0, {}]]], "name": "4_batch_norm", "class_name": "BatchNormalization"}, {"config": {"trainable": true, "name": "4_relu", "activation": "relu"}, "inbound_nodes": [[["4_batch_norm", 0, 0, {}]]], "name": "4_relu", "class_name": "Activation"}, {"config": {"activation": "linear", "data_format": "channels_last", "use_bias": true, "kernel_initializer": {"config": {"scale": 2.0, "mode": "fan_in", "distribution": "normal", "seed": null}, "class_name": "VarianceScaling"}, "bias_regularizer": null, "padding": "same", "bias_initializer": {"config": {}, "class_name": "Zeros"}, "name": "5_conv_block", "dilation_rate": [1, 1], "activity_regularizer": null, "kernel_constraint": null, "kernel_size": [3, 3], "kernel_regularizer": null, "trainable": true, "bias_constraint": null, "strides": [1, 1], "filters": 256}, "inbound_nodes": [[["4_relu", 0, 0, {}]]], "name": "5_conv_block", "class_name": "Conv2D"}, {"config": {"momentum": 0.99, "axis": 1, "beta_initializer": {"config": {}, "class_name": "Zeros"}, "moving_mean_initializer": {"config": {}, "class_name": "Zeros"}, "epsilon": 0.001, "gamma_constraint": null, "name": "5_batch_norm", "center": true, "gamma_initializer": {"config": {}, "class_name": "Ones"}, "gamma_regularizer": null, "scale": true, "trainable": true, "beta_constraint": null, "moving_variance_initializer": {"config": {}, "class_name": "Ones"}, "beta_regularizer": null}, "inbound_nodes": [[["5_conv_block", 0, 0, {}]]], "name": "5_batch_norm", "class_name": "BatchNormalization"}, {"config": {"trainable": true, "name": "5_relu", "activation": "relu"}, "inbound_nodes": [[["5_batch_norm", 0, 0, {}]]], "name": "5_relu", "class_name": "Activation"}, {"config": {"activation": "linear", "data_format": "channels_last", "use_bias": true, "kernel_initializer": {"config": {"scale": 2.0, "mode": "fan_in", "distribution": "normal", "seed": null}, "class_name": "VarianceScaling"}, "bias_regularizer": null, "padding": "same", "bias_initializer": {"config": {}, "class_name": "Zeros"}, "name": "6_conv_block", "dilation_rate": [1, 1], "activity_regularizer": null, "kernel_constraint": null, "kernel_size": [3, 3], "kernel_regularizer": null, "trainable": true, "bias_constraint": null, "strides": [1, 1], "filters": 256}, "inbound_nodes": [[["5_relu", 0, 0, {}]]], "name": "6_conv_block", "class_name": "Conv2D"}, {"config": {"momentum": 0.99, "axis": 1, "beta_initializer": {"config": {}, "class_name": "Zeros"}, "moving_mean_initializer": {"config": {}, "class_name": "Zeros"}, "epsilon": 0.001, "gamma_constraint": null, "name": "6_batch_norm", "center": true, "gamma_initializer": {"config": {}, "class_name": "Ones"}, "gamma_regularizer": null, "scale": true, "trainable": true, "beta_constraint": null, "moving_variance_initializer": {"config": {}, "class_name": "Ones"}, "beta_regularizer": null}, "inbound_nodes": [[["6_conv_block", 0, 0, {}]]], "name": "6_batch_norm", "class_name": "BatchNormalization"}, {"config": {"trainable": true, "name": "6_relu", "activation": "relu"}, "inbound_nodes": [[["6_batch_norm", 0, 0, {}]]], "name": "6_relu", "class_name": "Activation"}, {"config": {"activation": "linear", "data_format": "channels_last", "use_bias": true, "kernel_initializer": {"config": {"scale": 2.0, "mode": "fan_in", "distribution": "normal", "seed": null}, "class_name": "VarianceScaling"}, "bias_regularizer": null, "padding": "same", "bias_initializer": {"config": {}, "class_name": "Zeros"}, "name": "7_conv_block", "dilation_rate": [1, 1], "activity_regularizer": null, "kernel_constraint": null, "kernel_size": [3, 3], "kernel_regularizer": null, "trainable": true, "bias_constraint": null, "strides": [1, 1], "filters": 256}, "inbound_nodes": [[["6_relu", 0, 0, {}]]], "name": "7_conv_block", "class_name": "Conv2D"}, {"config": {"momentum": 0.99, "axis": 1, "beta_initializer": {"config": {}, "class_name": "Zeros"}, "moving_mean_initializer": {"config": {}, "class_name": "Zeros"}, "epsilon": 0.001, "gamma_constraint": null, "name": "7_batch_norm", "center": true, "gamma_initializer": {"config": {}, "class_name": "Ones"}, "gamma_regularizer": null, "scale": true, "trainable": true, "beta_constraint": null, "moving_variance_initializer": {"config": {}, "class_name": "Ones"}, "beta_regularizer": null}, "inbound_nodes": [[["7_conv_block", 0, 0, {}]]], "name": "7_batch_norm", "class_name": "BatchNormalization"}, {"config": {"trainable": true, "name": "7_relu", "activation": "relu"}, "inbound_nodes": [[["7_batch_norm", 0, 0, {}]]], "name": "7_relu", "class_name": "Activation"}, {"config": {"activation": "linear", "data_format": "channels_last", "use_bias": true, "kernel_initializer": {"config": {"scale": 2.0, "mode": "fan_in", "distribution": "normal", "seed": null}, "class_name": "VarianceScaling"}, "bias_regularizer": null, "padding": "same", "bias_initializer": {"config": {}, "class_name": "Zeros"}, "name": "8_conv_block", "dilation_rate": [1, 1], "activity_regularizer": null, "kernel_constraint": null, "kernel_size": [3, 3], "kernel_regularizer": null, "trainable": true, "bias_constraint": null, "strides": [1, 1], "filters": 256}, "inbound_nodes": [[["7_relu", 0, 0, {}]]], "name": "8_conv_block", "class_name": "Conv2D"}, {"config": {"momentum": 0.99, "axis": 1, "beta_initializer": {"config": {}, "class_name": "Zeros"}, "moving_mean_initializer": {"config": {}, "class_name": "Zeros"}, "epsilon": 0.001, "gamma_constraint": null, "name": "8_batch_norm", "center": true, "gamma_initializer": {"config": {}, "class_name": "Ones"}, "gamma_regularizer": null, "scale": true, "trainable": true, "beta_constraint": null, "moving_variance_initializer": {"config": {}, "class_name": "Ones"}, "beta_regularizer": null}, "inbound_nodes": [[["8_conv_block", 0, 0, {}]]], "name": "8_batch_norm", "class_name": "BatchNormalization"}, {"config": {"trainable": true, "name": "8_relu", "activation": "relu"}, "inbound_nodes": [[["8_batch_norm", 0, 0, {}]]], "name": "8_relu", "class_name": "Activation"}, {"config": {"activation": "linear", "data_format": "channels_last", "use_bias": true, "kernel_initializer": {"config": {"scale": 2.0, "mode": "fan_in", "distribution": "normal", "seed": null}, "class_name": "VarianceScaling"}, "bias_regularizer": null, "padding": "same", "bias_initializer": {"config": {}, "class_name": "Zeros"}, "name": "9_conv_block", "dilation_rate": [1, 1], "activity_regularizer": null, "kernel_constraint": null, "kernel_size": [3, 3], "kernel_regularizer": null, "trainable": true, "bias_constraint": null, "strides": [1, 1], "filters": 256}, "inbound_nodes": [[["8_relu", 0, 0, {}]]], "name": "9_conv_block", "class_name": "Conv2D"}, {"config": {"momentum": 0.99, "axis": 1, "beta_initializer": {"config": {}, "class_name": "Zeros"}, "moving_mean_initializer": {"config": {}, "class_name": "Zeros"}, "epsilon": 0.001, "gamma_constraint": null, "name": "9_batch_norm", "center": true, "gamma_initializer": {"config": {}, "class_name": "Ones"}, "gamma_regularizer": null, "scale": true, "trainable": true, "beta_constraint": null, "moving_variance_initializer": {"config": {}, "class_name": "Ones"}, "beta_regularizer": null}, "inbound_nodes": [[["9_conv_block", 0, 0, {}]]], "name": "9_batch_norm", "class_name": "BatchNormalization"}, {"config": {"trainable": true, "name": "9_relu", "activation": "relu"}, "inbound_nodes": [[["9_batch_norm", 0, 0, {}]]], "name": "9_relu", "class_name": "Activation"}, {"config": {"activation": "linear", "data_format": "channels_last", "use_bias": true, "kernel_initializer": {"config": {"scale": 2.0, "mode": "fan_in", "distribution": "normal", "seed": null}, "class_name": "VarianceScaling"}, "bias_regularizer": null, "padding": "same", "bias_initializer": {"config": {}, "class_name": "Zeros"}, "name": "10_conv_block", "dilation_rate": [1, 1], "activity_regularizer": null, "kernel_constraint": null, "kernel_size": [3, 3], "kernel_regularizer": null, "trainable": true, "bias_constraint": null, "strides": [1, 1], "filters": 256}, "inbound_nodes": [[["9_relu", 0, 0, {}]]], "name": "10_conv_block", "class_name": "Conv2D"}, {"config": {"momentum": 0.99, "axis": 1, "beta_initializer": {"config": {}, "class_name": "Zeros"}, "moving_mean_initializer": {"config": {}, "class_name": "Zeros"}, "epsilon": 0.001, "gamma_constraint": null, "name": "10_batch_norm", "center": true, "gamma_initializer": {"config": {}, "class_name": "Ones"}, "gamma_regularizer": null, "scale": true, "trainable": true, "beta_constraint": null, "moving_variance_initializer": {"config": {}, "class_name": "Ones"}, "beta_regularizer": null}, "inbound_nodes": [[["10_conv_block", 0, 0, {}]]], "name": "10_batch_norm", "class_name": "BatchNormalization"}, {"config": {"trainable": true, "name": "10_relu", "activation": "relu"}, "inbound_nodes": [[["10_batch_norm", 0, 0, {}]]], "name": "10_relu", "class_name": "Activation"}, {"config": {"activation": "linear", "data_format": "channels_last", "use_bias": true, "kernel_initializer": {"config": {"scale": 2.0, "mode": "fan_in", "distribution": "normal", "seed": null}, "class_name": "VarianceScaling"}, "bias_regularizer": null, "padding": "same", "bias_initializer": {"config": {}, "class_name": "Zeros"}, "name": "11_conv_block", "dilation_rate": [1, 1], "activity_regularizer": null, "kernel_constraint": null, "kernel_size": [3, 3], "kernel_regularizer": null, "trainable": true, "bias_constraint": null, "strides": [1, 1], "filters": 256}, "inbound_nodes": [[["10_relu", 0, 0, {}]]], "name": "11_conv_block", "class_name": "Conv2D"}, {"config": {"momentum": 0.99, "axis": 1, "beta_initializer": {"config": {}, "class_name": "Zeros"}, "moving_mean_initializer": {"config": {}, "class_name": "Zeros"}, "epsilon": 0.001, "gamma_constraint": null, "name": "11_batch_norm", "center": true, "gamma_initializer": {"config": {}, "class_name": "Ones"}, "gamma_regularizer": null, "scale": true, "trainable": true, "beta_constraint": null, "moving_variance_initializer": {"config": {}, "class_name": "Ones"}, "beta_regularizer": null}, "inbound_nodes": [[["11_conv_block", 0, 0, {}]]], "name": "11_batch_norm", "class_name": "BatchNormalization"}, {"config": {"trainable": true, "name": "11_relu", "activation": "relu"}, "inbound_nodes": [[["11_batch_norm", 0, 0, {}]]], "name": "11_relu", "class_name": "Activation"}, {"config": {"activation": "linear", "data_format": "channels_last", "use_bias": true, "kernel_initializer": {"config": {"scale": 2.0, "mode": "fan_in", "distribution": "normal", "seed": null}, "class_name": "VarianceScaling"}, "bias_regularizer": null, "padding": "same", "bias_initializer": {"config": {}, "class_name": "Zeros"}, "name": "12_conv_block", "dilation_rate": [1, 1], "activity_regularizer": null, "kernel_constraint": null, "kernel_size": [3, 3], "kernel_regularizer": null, "trainable": true, "bias_constraint": null, "strides": [1, 1], "filters": 256}, "inbound_nodes": [[["11_relu", 0, 0, {}]]], "name": "12_conv_block", "class_name": "Conv2D"}, {"config": {"momentum": 0.99, "axis": 1, "beta_initializer": {"config": {}, "class_name": "Zeros"}, "moving_mean_initializer": {"config": {}, "class_name": "Zeros"}, "epsilon": 0.001, "gamma_constraint": null, "name": "12_batch_norm", "center": true, "gamma_initializer": {"config": {}, "class_name": "Ones"}, "gamma_regularizer": null, "scale": true, "trainable": true, "beta_constraint": null, "moving_variance_initializer": {"config": {}, "class_name": "Ones"}, "beta_regularizer": null}, "inbound_nodes": [[["12_conv_block", 0, 0, {}]]], "name": "12_batch_norm", "class_name": "BatchNormalization"}, {"config": {"trainable": true, "name": "12_relu", "activation": "relu"}, "inbound_nodes": [[["12_batch_norm", 0, 0, {}]]], "name": "12_relu", "class_name": "Activation"}, {"config": {"activation": "linear", "data_format": "channels_last", "use_bias": true, "kernel_initializer": {"config": {"scale": 2.0, "mode": "fan_in", "distribution": "normal", "seed": null}, "class_name": "VarianceScaling"}, "bias_regularizer": null, "padding": "same", "bias_initializer": {"config": {}, "class_name": "Zeros"}, "name": "13_conv_block", "dilation_rate": [1, 1], "activity_regularizer": null, "kernel_constraint": null, "kernel_size": [3, 3], "kernel_regularizer": null, "trainable": true, "bias_constraint": null, "strides": [1, 1], "filters": 256}, "inbound_nodes": [[["12_relu", 0, 0, {}]]], "name": "13_conv_block", "class_name": "Conv2D"}, {"config": {"momentum": 0.99, "axis": 1, "beta_initializer": {"config": {}, "class_name": "Zeros"}, "moving_mean_initializer": {"config": {}, "class_name": "Zeros"}, "epsilon": 0.001, "gamma_constraint": null, "name": "13_batch_norm", "center": true, "gamma_initializer": {"config": {}, "class_name": "Ones"}, "gamma_regularizer": null, "scale": true, "trainable": true, "beta_constraint": null, "moving_variance_initializer": {"config": {}, "class_name": "Ones"}, "beta_regularizer": null}, "inbound_nodes": [[["13_conv_block", 0, 0, {}]]], "name": "13_batch_norm", "class_name": "BatchNormalization"}, {"config": {"trainable": true, "name": "13_relu", "activation": "relu"}, "inbound_nodes": [[["13_batch_norm", 0, 0, {}]]], "name": "13_relu", "class_name": "Activation"}, {"config": {"activation": "linear", "data_format": "channels_last", "use_bias": true, "kernel_initializer": {"config": {"scale": 2.0, "mode": "fan_in", "distribution": "normal", "seed": null}, "class_name": "VarianceScaling"}, "bias_regularizer": null, "padding": "same", "bias_initializer": {"config": {}, "class_name": "Zeros"}, "name": "14_conv_block", "dilation_rate": [1, 1], "activity_regularizer": null, "kernel_constraint": null, "kernel_size": [3, 3], "kernel_regularizer": null, "trainable": true, "bias_constraint": null, "strides": [1, 1], "filters": 256}, "inbound_nodes": [[["13_relu", 0, 0, {}]]], "name": "14_conv_block", "class_name": "Conv2D"}, {"config": {"momentum": 0.99, "axis": 1, "beta_initializer": {"config": {}, "class_name": "Zeros"}, "moving_mean_initializer": {"config": {}, "class_name": "Zeros"}, "epsilon": 0.001, "gamma_constraint": null, "name": "14_batch_norm", "center": true, "gamma_initializer": {"config": {}, "class_name": "Ones"}, "gamma_regularizer": null, "scale": true, "trainable": true, "beta_constraint": null, "moving_variance_initializer": {"config": {}, "class_name": "Ones"}, "beta_regularizer": null}, "inbound_nodes": [[["14_conv_block", 0, 0, {}]]], "name": "14_batch_norm", "class_name": "BatchNormalization"}, {"config": {"trainable": true, "name": "14_relu", "activation": "relu"}, "inbound_nodes": [[["14_batch_norm", 0, 0, {}]]], "name": "14_relu", "class_name": "Activation"}, {"config": {"activation": "linear", "data_format": "channels_last", "use_bias": true, "kernel_initializer": {"config": {"scale": 2.0, "mode": "fan_in", "distribution": "normal", "seed": null}, "class_name": "VarianceScaling"}, "bias_regularizer": null, "padding": "same", "bias_initializer": {"config": {}, "class_name": "Zeros"}, "name": "15_conv_block", "dilation_rate": [1, 1], "activity_regularizer": null, "kernel_constraint": null, "kernel_size": [3, 3], "kernel_regularizer": null, "trainable": true, "bias_constraint": null, "strides": [1, 1], "filters": 256}, "inbound_nodes": [[["14_relu", 0, 0, {}]]], "name": "15_conv_block", "class_name": "Conv2D"}, {"config": {"momentum": 0.99, "axis": 1, "beta_initializer": {"config": {}, "class_name": "Zeros"}, "moving_mean_initializer": {"config": {}, "class_name": "Zeros"}, "epsilon": 0.001, "gamma_constraint": null, "name": "15_batch_norm", "center": true, "gamma_initializer": {"config": {}, "class_name": "Ones"}, "gamma_regularizer": null, "scale": true, "trainable": true, "beta_constraint": null, "moving_variance_initializer": {"config": {}, "class_name": "Ones"}, "beta_regularizer": null}, "inbound_nodes": [[["15_conv_block", 0, 0, {}]]], "name": "15_batch_norm", "class_name": "BatchNormalization"}, {"config": {"trainable": true, "name": "15_relu", "activation": "relu"}, "inbound_nodes": [[["15_batch_norm", 0, 0, {}]]], "name": "15_relu", "class_name": "Activation"}, {"config": {"activation": "linear", "data_format": "channels_last", "use_bias": true, "kernel_initializer": {"config": {"scale": 2.0, "mode": "fan_in", "distribution": "normal", "seed": null}, "class_name": "VarianceScaling"}, "bias_regularizer": null, "padding": "same", "bias_initializer": {"config": {}, "class_name": "Zeros"}, "name": "16_conv_block", "dilation_rate": [1, 1], "activity_regularizer": null, "kernel_constraint": null, "kernel_size": [3, 3], "kernel_regularizer": null, "trainable": true, "bias_constraint": null, "strides": [1, 1], "filters": 256}, "inbound_nodes": [[["15_relu", 0, 0, {}]]], "name": "16_conv_block", "class_name": "Conv2D"}, {"config": {"momentum": 0.99, "axis": 1, "beta_initializer": {"config": {}, "class_name": "Zeros"}, "moving_mean_initializer": {"config": {}, "class_name": "Zeros"}, "epsilon": 0.001, "gamma_constraint": null, "name": "16_batch_norm", "center": true, "gamma_initializer": {"config": {}, "class_name": "Ones"}, "gamma_regularizer": null, "scale": true, "trainable": true, "beta_constraint": null, "moving_variance_initializer": {"config": {}, "class_name": "Ones"}, "beta_regularizer": null}, "inbound_nodes": [[["16_conv_block", 0, 0, {}]]], "name": "16_batch_norm", "class_name": "BatchNormalization"}, {"config": {"trainable": true, "name": "16_relu", "activation": "relu"}, "inbound_nodes": [[["16_batch_norm", 0, 0, {}]]], "name": "16_relu", "class_name": "Activation"}, {"config": {"activation": "linear", "data_format": "channels_last", "use_bias": true, "kernel_initializer": {"config": {"scale": 2.0, "mode": "fan_in", "distribution": "normal", "seed": null}, "class_name": "VarianceScaling"}, "bias_regularizer": null, "padding": "same", "bias_initializer": {"config": {}, "class_name": "Zeros"}, "name": "17_conv_block", "dilation_rate": [1, 1], "activity_regularizer": null, "kernel_constraint": null, "kernel_size": [3, 3], "kernel_regularizer": null, "trainable": true, "bias_constraint": null, "strides": [1, 1], "filters": 256}, "inbound_nodes": [[["16_relu", 0, 0, {}]]], "name": "17_conv_block", "class_name": "Conv2D"}, {"config": {"momentum": 0.99, "axis": 1, "beta_initializer": {"config": {}, "class_name": "Zeros"}, "moving_mean_initializer": {"config": {}, "class_name": "Zeros"}, "epsilon": 0.001, "gamma_constraint": null, "name": "17_batch_norm", "center": true, "gamma_initializer": {"config": {}, "class_name": "Ones"}, "gamma_regularizer": null, "scale": true, "trainable": true, "beta_constraint": null, "moving_variance_initializer": {"config": {}, "class_name": "Ones"}, "beta_regularizer": null}, "inbound_nodes": [[["17_conv_block", 0, 0, {}]]], "name": "17_batch_norm", "class_name": "BatchNormalization"}, {"config": {"trainable": true, "name": "17_relu", "activation": "relu"}, "inbound_nodes": [[["17_batch_norm", 0, 0, {}]]], "name": "17_relu", "class_name": "Activation"}, {"config": {"activation": "linear", "data_format": "channels_last", "use_bias": true, "kernel_initializer": {"config": {"scale": 2.0, "mode": "fan_in", "distribution": "normal", "seed": null}, "class_name": "VarianceScaling"}, "bias_regularizer": null, "padding": "same", "bias_initializer": {"config": {}, "class_name": "Zeros"}, "name": "18_conv_block", "dilation_rate": [1, 1], "activity_regularizer": null, "kernel_constraint": null, "kernel_size": [3, 3], "kernel_regularizer": null, "trainable": true, "bias_constraint": null, "strides": [1, 1], "filters": 256}, "inbound_nodes": [[["17_relu", 0, 0, {}]]], "name": "18_conv_block", "class_name": "Conv2D"}, {"config": {"momentum": 0.99, "axis": 1, "beta_initializer": {"config": {}, "class_name": "Zeros"}, "moving_mean_initializer": {"config": {}, "class_name": "Zeros"}, "epsilon": 0.001, "gamma_constraint": null, "name": "18_batch_norm", "center": true, "gamma_initializer": {"config": {}, "class_name": "Ones"}, "gamma_regularizer": null, "scale": true, "trainable": true, "beta_constraint": null, "moving_variance_initializer": {"config": {}, "class_name": "Ones"}, "beta_regularizer": null}, "inbound_nodes": [[["18_conv_block", 0, 0, {}]]], "name": "18_batch_norm", "class_name": "BatchNormalization"}, {"config": {"trainable": true, "name": "18_relu", "activation": "relu"}, "inbound_nodes": [[["18_batch_norm", 0, 0, {}]]], "name": "18_relu", "class_name": "Activation"}, {"config": {"activation": "linear", "data_format": "channels_last", "use_bias": true, "kernel_initializer": {"config": {"scale": 2.0, "mode": "fan_in", "distribution": "normal", "seed": null}, "class_name": "VarianceScaling"}, "bias_regularizer": null, "padding": "same", "bias_initializer": {"config": {}, "class_name": "Zeros"}, "name": "19_conv_block", "dilation_rate": [1, 1], "activity_regularizer": null, "kernel_constraint": null, "kernel_size": [3, 3], "kernel_regularizer": null, "trainable": true, "bias_constraint": null, "strides": [1, 1], "filters": 256}, "inbound_nodes": [[["18_relu", 0, 0, {}]]], "name": "19_conv_block", "class_name": "Conv2D"}, {"config": {"momentum": 0.99, "axis": 1, "beta_initializer": {"config": {}, "class_name": "Zeros"}, "moving_mean_initializer": {"config": {}, "class_name": "Zeros"}, "epsilon": 0.001, "gamma_constraint": null, "name": "19_batch_norm", "center": true, "gamma_initializer": {"config": {}, "class_name": "Ones"}, "gamma_regularizer": null, "scale": true, "trainable": true, "beta_constraint": null, "moving_variance_initializer": {"config": {}, "class_name": "Ones"}, "beta_regularizer": null}, "inbound_nodes": [[["19_conv_block", 0, 0, {}]]], "name": "19_batch_norm", "class_name": "BatchNormalization"}, {"config": {"trainable": true, "name": "19_relu", "activation": "relu"}, "inbound_nodes": [[["19_batch_norm", 0, 0, {}]]], "name": "19_relu", "class_name": "Activation"}, {"config": {"activation": "linear", "data_format": "channels_last", "use_bias": true, "kernel_initializer": {"config": {"scale": 1.0, "mode": "fan_avg", "distribution": "uniform", "seed": null}, "class_name": "VarianceScaling"}, "bias_regularizer": null, "padding": "same", "bias_initializer": {"config": {}, "class_name": "Zeros"}, "name": "policy_head_conv_block", "dilation_rate": [1, 1], "activity_regularizer": null, "kernel_constraint": null, "kernel_size": [3, 3], "kernel_regularizer": null, "trainable": true, "bias_constraint": null, "strides": [1, 1], "filters": 2}, "inbound_nodes": [[["19_relu", 0, 0, {}]]], "name": "policy_head_conv_block", "class_name": "Conv2D"}, {"config": {"momentum": 0.99, "axis": 1, "beta_initializer": {"config": {}, "class_name": "Zeros"}, "moving_mean_initializer": {"config": {}, "class_name": "Zeros"}, "epsilon": 0.001, "gamma_constraint": null, "name": "policy_head_batch_norm", "center": true, "gamma_initializer": {"config": {}, "class_name": "Ones"}, "gamma_regularizer": null, "scale": true, "trainable": true, "beta_constraint": null, "moving_variance_initializer": {"config": {}, "class_name": "Ones"}, "beta_regularizer": null}, "inbound_nodes": [[["policy_head_conv_block", 0, 0, {}]]], "name": "policy_head_batch_norm", "class_name": "BatchNormalization"}, {"config": {"trainable": true, "name": "policy_head_relu", "activation": "relu"}, "inbound_nodes": [[["policy_head_batch_norm", 0, 0, {}]]], "name": "policy_head_relu", "class_name": "Activation"}, {"config": {"data_format": "channels_last", "trainable": true, "name": "flatten_7"}, "inbound_nodes": [[["policy_head_relu", 0, 0, {}]]], "name": "flatten_7", "class_name": "Flatten"}, {"config": {"activation": "linear", "use_bias": true, "bias_constraint": null, "bias_regularizer": null, "bias_initializer": {"config": {}, "class_name": "Zeros"}, "name": "policy_head_dense", "units": 362, "kernel_constraint": null, "kernel_regularizer": null, "trainable": true, "kernel_initializer": {"config": {"scale": 1.0, "mode": "fan_avg", "distribution": "uniform", "seed": null}, "class_name": "VarianceScaling"}, "activity_regularizer": null}, "inbound_nodes": [[["flatten_7", 0, 0, {}]]], "name": "policy_head_dense", "class_name": "Dense"}], "output_layers": [["policy_head_dense", 0, 0]], "name": "model_5", "input_layers": [["input_5", 0, 0]]}, "backend": "tensorflow", "class_name": "Model"}