{"keras_version": "2.2.0", "config": {"layers": [{"config": {"dtype": "float32", "batch_input_shape": [null, 10, 19, 19], "sparse": false, "name": "input_2"}, "inbound_nodes": [], "name": "input_2", "class_name": "InputLayer"}, {"config": {"activation": "linear", "data_format": "channels_last", "use_bias": true, "kernel_initializer": {"config": {"scale": 2.0, "mode": "fan_in", "distribution": "normal", "seed": null}, "class_name": "VarianceScaling"}, "bias_regularizer": null, "padding": "same", "bias_initializer": {"config": {}, "class_name": "Zeros"}, "name": "init_conv_block", "dilation_rate": [1, 1], "activity_regularizer": null, "kernel_constraint": null, "kernel_size": [3, 3], "kernel_regularizer": null, "trainable": true, "bias_constraint": null, "strides": [1, 1], "filters": 256}, "inbound_nodes": [[["input_2", 0, 0, {}]]], "name": "init_conv_block", "class_name": "Conv2D"}, {"config": {"momentum": 0.99, "axis": 1, "beta_initializer": {"config": {}, "class_name": "Zeros"}, "moving_mean_initializer": {"config": {}, "class_name": "Zeros"}, "epsilon": 0.001, "gamma_constraint": null, "name": "init_batch_norm", "center": true, "gamma_initializer": {"config": {}, "class_name": "Ones"}, "gamma_regularizer": null, "scale": true, "trainable": true, "beta_constraint": null, "moving_variance_initializer": {"config": {}, "class_name": "Ones"}, "beta_regularizer": null}, "inbound_nodes": [[["init_conv_block", 0, 0, {}]]], "name": "init_batch_norm", "class_name": "BatchNormalization"}, {"config": {"trainable": true, "name": "init_relu", "activation": "relu"}, "inbound_nodes": [[["init_batch_norm", 0, 0, {}]]], "name": "init_relu", "class_name": "Activation"}, {"config": {"activation": "linear", "data_format": "channels_last", "use_bias": true, "kernel_initializer": {"config": {"scale": 2.0, "mode": "fan_in", "distribution": "normal", "seed": null}, "class_name": "VarianceScaling"}, "bias_regularizer": null, "padding": "same", "bias_initializer": {"config": {}, "class_name": "Zeros"}, "name": "residual_1_0_conv_block", "dilation_rate": [1, 1], "activity_regularizer": null, "kernel_constraint": null, "kernel_size": [3, 3], "kernel_regularizer": null, "trainable": true, "bias_constraint": null, "strides": [1, 1], "filters": 256}, "inbound_nodes": [[["init_relu", 0, 0, {}]]], "name": "residual_1_0_conv_block", "class_name": "Conv2D"}, {"config": {"momentum": 0.99, "axis": 1, "beta_initializer": {"config": {}, "class_name": "Zeros"}, "moving_mean_initializer": {"config": {}, "class_name": "Zeros"}, "epsilon": 0.001, "gamma_constraint": null, "name": "residual_1_0_batch_norm", "center": true, "gamma_initializer": {"config": {}, "class_name": "Ones"}, "gamma_regularizer": null, "scale": true, "trainable": true, "beta_constraint": null, "moving_variance_initializer": {"config": {}, "class_name": "Ones"}, "beta_regularizer": null}, "inbound_nodes": [[["residual_1_0_conv_block", 0, 0, {}]]], "name": "residual_1_0_batch_norm", "class_name": "BatchNormalization"}, {"config": {"trainable": true, "name": "residual_1_0_relu", "activation": "relu"}, "inbound_nodes": [[["residual_1_0_batch_norm", 0, 0, {}]]], "name": "residual_1_0_relu", "class_name": "Activation"}, {"config": {"activation": "linear", "data_format": "channels_last", "use_bias": true, "kernel_initializer": {"config": {"scale": 2.0, "mode": "fan_in", "distribution": "normal", "seed": null}, "class_name": "VarianceScaling"}, "bias_regularizer": null, "padding": "same", "bias_initializer": {"config": {}, "class_name": "Zeros"}, "name": "residual_2_0_conv_block", "dilation_rate": [1, 1], "activity_regularizer": null, "kernel_constraint": null, "kernel_size": [3, 3], "kernel_regularizer": null, "trainable": true, "bias_constraint": null, "strides": [1, 1], "filters": 256}, "inbound_nodes": [[["residual_1_0_relu", 0, 0, {}]]], "name": "residual_2_0_conv_block", "class_name": "Conv2D"}, {"config": {"momentum": 0.99, "axis": 1, "beta_initializer": {"config": {}, "class_name": "Zeros"}, "moving_mean_initializer": {"config": {}, "class_name": "Zeros"}, "epsilon": 0.001, "gamma_constraint": null, "name": "residual_2_0_batch_norm", "center": true, "gamma_initializer": {"config": {}, "class_name": "Ones"}, "gamma_regularizer": null, "scale": true, "trainable": true, "beta_constraint": null, "moving_variance_initializer": {"config": {}, "class_name": "Ones"}, "beta_regularizer": null}, "inbound_nodes": [[["residual_2_0_conv_block", 0, 0, {}]]], "name": "residual_2_0_batch_norm", "class_name": "BatchNormalization"}, {"config": {"trainable": true, "name": "add_0"}, "inbound_nodes": [[["init_relu", 0, 0, {}], ["residual_2_0_batch_norm", 0, 0, {}]]], "name": "add_0", "class_name": "Add"}, {"config": {"trainable": true, "name": "0_relu", "activation": "relu"}, "inbound_nodes": [[["add_0", 0, 0, {}]]], "name": "0_relu", "class_name": "Activation"}, {"config": {"activation": "linear", "data_format": "channels_last", "use_bias": true, "kernel_initializer": {"config": {"scale": 2.0, "mode": "fan_in", "distribution": "normal", "seed": null}, "class_name": "VarianceScaling"}, "bias_regularizer": null, "padding": "same", "bias_initializer": {"config": {}, "class_name": "Zeros"}, "name": "residual_1_1_conv_block", "dilation_rate": [1, 1], "activity_regularizer": null, "kernel_constraint": null, "kernel_size": [3, 3], "kernel_regularizer": null, "trainable": true, "bias_constraint": null, "strides": [1, 1], "filters": 256}, "inbound_nodes": [[["0_relu", 0, 0, {}]]], "name": "residual_1_1_conv_block", "class_name": "Conv2D"}, {"config": {"momentum": 0.99, "axis": 1, "beta_initializer": {"config": {}, "class_name": "Zeros"}, "moving_mean_initializer": {"config": {}, "class_name": "Zeros"}, "epsilon": 0.001, "gamma_constraint": null, "name": "residual_1_1_batch_norm", "center": true, "gamma_initializer": {"config": {}, "class_name": "Ones"}, "gamma_regularizer": null, "scale": true, "trainable": true, "beta_constraint": null, "moving_variance_initializer": {"config": {}, "class_name": "Ones"}, "beta_regularizer": null}, "inbound_nodes": [[["residual_1_1_conv_block", 0, 0, {}]]], "name": "residual_1_1_batch_norm", "class_name": "BatchNormalization"}, {"config": {"trainable": true, "name": "residual_1_1_relu", "activation": "relu"}, "inbound_nodes": [[["residual_1_1_batch_norm", 0, 0, {}]]], "name": "residual_1_1_relu", "class_name": "Activation"}, {"config": {"activation": "linear", "data_format": "channels_last", "use_bias": true, "kernel_initializer": {"config": {"scale": 2.0, "mode": "fan_in", "distribution": "normal", "seed": null}, "class_name": "VarianceScaling"}, "bias_regularizer": null, "padding": "same", "bias_initializer": {"config": {}, "class_name": "Zeros"}, "name": "residual_2_1_conv_block", "dilation_rate": [1, 1], "activity_regularizer": null, "kernel_constraint": null, "kernel_size": [3, 3], "kernel_regularizer": null, "trainable": true, "bias_constraint": null, "strides": [1, 1], "filters": 256}, "inbound_nodes": [[["residual_1_1_relu", 0, 0, {}]]], "name": "residual_2_1_conv_block", "class_name": "Conv2D"}, {"config": {"momentum": 0.99, "axis": 1, "beta_initializer": {"config": {}, "class_name": "Zeros"}, "moving_mean_initializer": {"config": {}, "class_name": "Zeros"}, "epsilon": 0.001, "gamma_constraint": null, "name": "residual_2_1_batch_norm", "center": true, "gamma_initializer": {"config": {}, "class_name": "Ones"}, "gamma_regularizer": null, "scale": true, "trainable": true, "beta_constraint": null, "moving_variance_initializer": {"config": {}, "class_name": "Ones"}, "beta_regularizer": null}, "inbound_nodes": [[["residual_2_1_conv_block", 0, 0, {}]]], "name": "residual_2_1_batch_norm", "class_name": "BatchNormalization"}, {"config": {"trainable": true, "name": "add_1"}, "inbound_nodes": [[["0_relu", 0, 0, {}], ["residual_2_1_batch_norm", 0, 0, {}]]], "name": "add_1", "class_name": "Add"}, {"config": {"trainable": true, "name": "1_relu", "activation": "relu"}, "inbound_nodes": [[["add_1", 0, 0, {}]]], "name": "1_relu", "class_name": "Activation"}, {"config": {"activation": "linear", "data_format": "channels_last", "use_bias": true, "kernel_initializer": {"config": {"scale": 2.0, "mode": "fan_in", "distribution": "normal", "seed": null}, "class_name": "VarianceScaling"}, "bias_regularizer": null, "padding": "same", "bias_initializer": {"config": {}, "class_name": "Zeros"}, "name": "residual_1_2_conv_block", "dilation_rate": [1, 1], "activity_regularizer": null, "kernel_constraint": null, "kernel_size": [3, 3], "kernel_regularizer": null, "trainable": true, "bias_constraint": null, "strides": [1, 1], "filters": 256}, "inbound_nodes": [[["1_relu", 0, 0, {}]]], "name": "residual_1_2_conv_block", "class_name": "Conv2D"}, {"config": {"momentum": 0.99, "axis": 1, "beta_initializer": {"config": {}, "class_name": "Zeros"}, "moving_mean_initializer": {"config": {}, "class_name": "Zeros"}, "epsilon": 0.001, "gamma_constraint": null, "name": "residual_1_2_batch_norm", "center": true, "gamma_initializer": {"config": {}, "class_name": "Ones"}, "gamma_regularizer": null, "scale": true, "trainable": true, "beta_constraint": null, "moving_variance_initializer": {"config": {}, "class_name": "Ones"}, "beta_regularizer": null}, "inbound_nodes": [[["residual_1_2_conv_block", 0, 0, {}]]], "name": "residual_1_2_batch_norm", "class_name": "BatchNormalization"}, {"config": {"trainable": true, "name": "residual_1_2_relu", "activation": "relu"}, "inbound_nodes": [[["residual_1_2_batch_norm", 0, 0, {}]]], "name": "residual_1_2_relu", "class_name": "Activation"}, {"config": {"activation": "linear", "data_format": "channels_last", "use_bias": true, "kernel_initializer": {"config": {"scale": 2.0, "mode": "fan_in", "distribution": "normal", "seed": null}, "class_name": "VarianceScaling"}, "bias_regularizer": null, "padding": "same", "bias_initializer": {"config": {}, "class_name": "Zeros"}, "name": "residual_2_2_conv_block", "dilation_rate": [1, 1], "activity_regularizer": null, "kernel_constraint": null, "kernel_size": [3, 3], "kernel_regularizer": null, "trainable": true, "bias_constraint": null, "strides": [1, 1], "filters": 256}, "inbound_nodes": [[["residual_1_2_relu", 0, 0, {}]]], "name": "residual_2_2_conv_block", "class_name": "Conv2D"}, {"config": {"momentum": 0.99, "axis": 1, "beta_initializer": {"config": {}, "class_name": "Zeros"}, "moving_mean_initializer": {"config": {}, "class_name": "Zeros"}, "epsilon": 0.001, "gamma_constraint": null, "name": "residual_2_2_batch_norm", "center": true, "gamma_initializer": {"config": {}, "class_name": "Ones"}, "gamma_regularizer": null, "scale": true, "trainable": true, "beta_constraint": null, "moving_variance_initializer": {"config": {}, "class_name": "Ones"}, "beta_regularizer": null}, "inbound_nodes": [[["residual_2_2_conv_block", 0, 0, {}]]], "name": "residual_2_2_batch_norm", "class_name": "BatchNormalization"}, {"config": {"trainable": true, "name": "add_2"}, "inbound_nodes": [[["1_relu", 0, 0, {}], ["residual_2_2_batch_norm", 0, 0, {}]]], "name": "add_2", "class_name": "Add"}, {"config": {"trainable": true, "name": "2_relu", "activation": "relu"}, "inbound_nodes": [[["add_2", 0, 0, {}]]], "name": "2_relu", "class_name": "Activation"}, {"config": {"activation": "linear", "data_format": "channels_last", "use_bias": true, "kernel_initializer": {"config": {"scale": 2.0, "mode": "fan_in", "distribution": "normal", "seed": null}, "class_name": "VarianceScaling"}, "bias_regularizer": null, "padding": "same", "bias_initializer": {"config": {}, "class_name": "Zeros"}, "name": "residual_1_3_conv_block", "dilation_rate": [1, 1], "activity_regularizer": null, "kernel_constraint": null, "kernel_size": [3, 3], "kernel_regularizer": null, "trainable": true, "bias_constraint": null, "strides": [1, 1], "filters": 256}, "inbound_nodes": [[["2_relu", 0, 0, {}]]], "name": "residual_1_3_conv_block", "class_name": "Conv2D"}, {"config": {"momentum": 0.99, "axis": 1, "beta_initializer": {"config": {}, "class_name": "Zeros"}, "moving_mean_initializer": {"config": {}, "class_name": "Zeros"}, "epsilon": 0.001, "gamma_constraint": null, "name": "residual_1_3_batch_norm", "center": true, "gamma_initializer": {"config": {}, "class_name": "Ones"}, "gamma_regularizer": null, "scale": true, "trainable": true, "beta_constraint": null, "moving_variance_initializer": {"config": {}, "class_name": "Ones"}, "beta_regularizer": null}, "inbound_nodes": [[["residual_1_3_conv_block", 0, 0, {}]]], "name": "residual_1_3_batch_norm", "class_name": "BatchNormalization"}, {"config": {"trainable": true, "name": "residual_1_3_relu", "activation": "relu"}, "inbound_nodes": [[["residual_1_3_batch_norm", 0, 0, {}]]], "name": "residual_1_3_relu", "class_name": "Activation"}, {"config": {"activation": "linear", "data_format": "channels_last", "use_bias": true, "kernel_initializer": {"config": {"scale": 2.0, "mode": "fan_in", "distribution": "normal", "seed": null}, "class_name": "VarianceScaling"}, "bias_regularizer": null, "padding": "same", "bias_initializer": {"config": {}, "class_name": "Zeros"}, "name": "residual_2_3_conv_block", "dilation_rate": [1, 1], "activity_regularizer": null, "kernel_constraint": null, "kernel_size": [3, 3], "kernel_regularizer": null, "trainable": true, "bias_constraint": null, "strides": [1, 1], "filters": 256}, "inbound_nodes": [[["residual_1_3_relu", 0, 0, {}]]], "name": "residual_2_3_conv_block", "class_name": "Conv2D"}, {"config": {"momentum": 0.99, "axis": 1, "beta_initializer": {"config": {}, "class_name": "Zeros"}, "moving_mean_initializer": {"config": {}, "class_name": "Zeros"}, "epsilon": 0.001, "gamma_constraint": null, "name": "residual_2_3_batch_norm", "center": true, "gamma_initializer": {"config": {}, "class_name": "Ones"}, "gamma_regularizer": null, "scale": true, "trainable": true, "beta_constraint": null, "moving_variance_initializer": {"config": {}, "class_name": "Ones"}, "beta_regularizer": null}, "inbound_nodes": [[["residual_2_3_conv_block", 0, 0, {}]]], "name": "residual_2_3_batch_norm", "class_name": "BatchNormalization"}, {"config": {"trainable": true, "name": "add_3"}, "inbound_nodes": [[["2_relu", 0, 0, {}], ["residual_2_3_batch_norm", 0, 0, {}]]], "name": "add_3", "class_name": "Add"}, {"config": {"trainable": true, "name": "3_relu", "activation": "relu"}, "inbound_nodes": [[["add_3", 0, 0, {}]]], "name": "3_relu", "class_name": "Activation"}, {"config": {"activation": "linear", "data_format": "channels_last", "use_bias": true, "kernel_initializer": {"config": {"scale": 2.0, "mode": "fan_in", "distribution": "normal", "seed": null}, "class_name": "VarianceScaling"}, "bias_regularizer": null, "padding": "same", "bias_initializer": {"config": {}, "class_name": "Zeros"}, "name": "residual_1_4_conv_block", "dilation_rate": [1, 1], "activity_regularizer": null, "kernel_constraint": null, "kernel_size": [3, 3], "kernel_regularizer": null, "trainable": true, "bias_constraint": null, "strides": [1, 1], "filters": 256}, "inbound_nodes": [[["3_relu", 0, 0, {}]]], "name": "residual_1_4_conv_block", "class_name": "Conv2D"}, {"config": {"momentum": 0.99, "axis": 1, "beta_initializer": {"config": {}, "class_name": "Zeros"}, "moving_mean_initializer": {"config": {}, "class_name": "Zeros"}, "epsilon": 0.001, "gamma_constraint": null, "name": "residual_1_4_batch_norm", "center": true, "gamma_initializer": {"config": {}, "class_name": "Ones"}, "gamma_regularizer": null, "scale": true, "trainable": true, "beta_constraint": null, "moving_variance_initializer": {"config": {}, "class_name": "Ones"}, "beta_regularizer": null}, "inbound_nodes": [[["residual_1_4_conv_block", 0, 0, {}]]], "name": "residual_1_4_batch_norm", "class_name": "BatchNormalization"}, {"config": {"trainable": true, "name": "residual_1_4_relu", "activation": "relu"}, "inbound_nodes": [[["residual_1_4_batch_norm", 0, 0, {}]]], "name": "residual_1_4_relu", "class_name": "Activation"}, {"config": {"activation": "linear", "data_format": "channels_last", "use_bias": true, "kernel_initializer": {"config": {"scale": 2.0, "mode": "fan_in", "distribution": "normal", "seed": null}, "class_name": "VarianceScaling"}, "bias_regularizer": null, "padding": "same", "bias_initializer": {"config": {}, "class_name": "Zeros"}, "name": "residual_2_4_conv_block", "dilation_rate": [1, 1], "activity_regularizer": null, "kernel_constraint": null, "kernel_size": [3, 3], "kernel_regularizer": null, "trainable": true, "bias_constraint": null, "strides": [1, 1], "filters": 256}, "inbound_nodes": [[["residual_1_4_relu", 0, 0, {}]]], "name": "residual_2_4_conv_block", "class_name": "Conv2D"}, {"config": {"momentum": 0.99, "axis": 1, "beta_initializer": {"config": {}, "class_name": "Zeros"}, "moving_mean_initializer": {"config": {}, "class_name": "Zeros"}, "epsilon": 0.001, "gamma_constraint": null, "name": "residual_2_4_batch_norm", "center": true, "gamma_initializer": {"config": {}, "class_name": "Ones"}, "gamma_regularizer": null, "scale": true, "trainable": true, "beta_constraint": null, "moving_variance_initializer": {"config": {}, "class_name": "Ones"}, "beta_regularizer": null}, "inbound_nodes": [[["residual_2_4_conv_block", 0, 0, {}]]], "name": "residual_2_4_batch_norm", "class_name": "BatchNormalization"}, {"config": {"trainable": true, "name": "add_4"}, "inbound_nodes": [[["3_relu", 0, 0, {}], ["residual_2_4_batch_norm", 0, 0, {}]]], "name": "add_4", "class_name": "Add"}, {"config": {"trainable": true, "name": "4_relu", "activation": "relu"}, "inbound_nodes": [[["add_4", 0, 0, {}]]], "name": "4_relu", "class_name": "Activation"}, {"config": {"activation": "linear", "data_format": "channels_last", "use_bias": true, "kernel_initializer": {"config": {"scale": 2.0, "mode": "fan_in", "distribution": "normal", "seed": null}, "class_name": "VarianceScaling"}, "bias_regularizer": null, "padding": "same", "bias_initializer": {"config": {}, "class_name": "Zeros"}, "name": "residual_1_5_conv_block", "dilation_rate": [1, 1], "activity_regularizer": null, "kernel_constraint": null, "kernel_size": [3, 3], "kernel_regularizer": null, "trainable": true, "bias_constraint": null, "strides": [1, 1], "filters": 256}, "inbound_nodes": [[["4_relu", 0, 0, {}]]], "name": "residual_1_5_conv_block", "class_name": "Conv2D"}, {"config": {"momentum": 0.99, "axis": 1, "beta_initializer": {"config": {}, "class_name": "Zeros"}, "moving_mean_initializer": {"config": {}, "class_name": "Zeros"}, "epsilon": 0.001, "gamma_constraint": null, "name": "residual_1_5_batch_norm", "center": true, "gamma_initializer": {"config": {}, "class_name": "Ones"}, "gamma_regularizer": null, "scale": true, "trainable": true, "beta_constraint": null, "moving_variance_initializer": {"config": {}, "class_name": "Ones"}, "beta_regularizer": null}, "inbound_nodes": [[["residual_1_5_conv_block", 0, 0, {}]]], "name": "residual_1_5_batch_norm", "class_name": "BatchNormalization"}, {"config": {"trainable": true, "name": "residual_1_5_relu", "activation": "relu"}, "inbound_nodes": [[["residual_1_5_batch_norm", 0, 0, {}]]], "name": "residual_1_5_relu", "class_name": "Activation"}, {"config": {"activation": "linear", "data_format": "channels_last", "use_bias": true, "kernel_initializer": {"config": {"scale": 2.0, "mode": "fan_in", "distribution": "normal", "seed": null}, "class_name": "VarianceScaling"}, "bias_regularizer": null, "padding": "same", "bias_initializer": {"config": {}, "class_name": "Zeros"}, "name": "residual_2_5_conv_block", "dilation_rate": [1, 1], "activity_regularizer": null, "kernel_constraint": null, "kernel_size": [3, 3], "kernel_regularizer": null, "trainable": true, "bias_constraint": null, "strides": [1, 1], "filters": 256}, "inbound_nodes": [[["residual_1_5_relu", 0, 0, {}]]], "name": "residual_2_5_conv_block", "class_name": "Conv2D"}, {"config": {"momentum": 0.99, "axis": 1, "beta_initializer": {"config": {}, "class_name": "Zeros"}, "moving_mean_initializer": {"config": {}, "class_name": "Zeros"}, "epsilon": 0.001, "gamma_constraint": null, "name": "residual_2_5_batch_norm", "center": true, "gamma_initializer": {"config": {}, "class_name": "Ones"}, "gamma_regularizer": null, "scale": true, "trainable": true, "beta_constraint": null, "moving_variance_initializer": {"config": {}, "class_name": "Ones"}, "beta_regularizer": null}, "inbound_nodes": [[["residual_2_5_conv_block", 0, 0, {}]]], "name": "residual_2_5_batch_norm", "class_name": "BatchNormalization"}, {"config": {"trainable": true, "name": "add_5"}, "inbound_nodes": [[["4_relu", 0, 0, {}], ["residual_2_5_batch_norm", 0, 0, {}]]], "name": "add_5", "class_name": "Add"}, {"config": {"trainable": true, "name": "5_relu", "activation": "relu"}, "inbound_nodes": [[["add_5", 0, 0, {}]]], "name": "5_relu", "class_name": "Activation"}, {"config": {"activation": "linear", "data_format": "channels_last", "use_bias": true, "kernel_initializer": {"config": {"scale": 2.0, "mode": "fan_in", "distribution": "normal", "seed": null}, "class_name": "VarianceScaling"}, "bias_regularizer": null, "padding": "same", "bias_initializer": {"config": {}, "class_name": "Zeros"}, "name": "residual_1_6_conv_block", "dilation_rate": [1, 1], "activity_regularizer": null, "kernel_constraint": null, "kernel_size": [3, 3], "kernel_regularizer": null, "trainable": true, "bias_constraint": null, "strides": [1, 1], "filters": 256}, "inbound_nodes": [[["5_relu", 0, 0, {}]]], "name": "residual_1_6_conv_block", "class_name": "Conv2D"}, {"config": {"momentum": 0.99, "axis": 1, "beta_initializer": {"config": {}, "class_name": "Zeros"}, "moving_mean_initializer": {"config": {}, "class_name": "Zeros"}, "epsilon": 0.001, "gamma_constraint": null, "name": "residual_1_6_batch_norm", "center": true, "gamma_initializer": {"config": {}, "class_name": "Ones"}, "gamma_regularizer": null, "scale": true, "trainable": true, "beta_constraint": null, "moving_variance_initializer": {"config": {}, "class_name": "Ones"}, "beta_regularizer": null}, "inbound_nodes": [[["residual_1_6_conv_block", 0, 0, {}]]], "name": "residual_1_6_batch_norm", "class_name": "BatchNormalization"}, {"config": {"trainable": true, "name": "residual_1_6_relu", "activation": "relu"}, "inbound_nodes": [[["residual_1_6_batch_norm", 0, 0, {}]]], "name": "residual_1_6_relu", "class_name": "Activation"}, {"config": {"activation": "linear", "data_format": "channels_last", "use_bias": true, "kernel_initializer": {"config": {"scale": 2.0, "mode": "fan_in", "distribution": "normal", "seed": null}, "class_name": "VarianceScaling"}, "bias_regularizer": null, "padding": "same", "bias_initializer": {"config": {}, "class_name": "Zeros"}, "name": "residual_2_6_conv_block", "dilation_rate": [1, 1], "activity_regularizer": null, "kernel_constraint": null, "kernel_size": [3, 3], "kernel_regularizer": null, "trainable": true, "bias_constraint": null, "strides": [1, 1], "filters": 256}, "inbound_nodes": [[["residual_1_6_relu", 0, 0, {}]]], "name": "residual_2_6_conv_block", "class_name": "Conv2D"}, {"config": {"momentum": 0.99, "axis": 1, "beta_initializer": {"config": {}, "class_name": "Zeros"}, "moving_mean_initializer": {"config": {}, "class_name": "Zeros"}, "epsilon": 0.001, "gamma_constraint": null, "name": "residual_2_6_batch_norm", "center": true, "gamma_initializer": {"config": {}, "class_name": "Ones"}, "gamma_regularizer": null, "scale": true, "trainable": true, "beta_constraint": null, "moving_variance_initializer": {"config": {}, "class_name": "Ones"}, "beta_regularizer": null}, "inbound_nodes": [[["residual_2_6_conv_block", 0, 0, {}]]], "name": "residual_2_6_batch_norm", "class_name": "BatchNormalization"}, {"config": {"trainable": true, "name": "add_6"}, "inbound_nodes": [[["5_relu", 0, 0, {}], ["residual_2_6_batch_norm", 0, 0, {}]]], "name": "add_6", "class_name": "Add"}, {"config": {"trainable": true, "name": "6_relu", "activation": "relu"}, "inbound_nodes": [[["add_6", 0, 0, {}]]], "name": "6_relu", "class_name": "Activation"}, {"config": {"activation": "linear", "data_format": "channels_last", "use_bias": true, "kernel_initializer": {"config": {"scale": 2.0, "mode": "fan_in", "distribution": "normal", "seed": null}, "class_name": "VarianceScaling"}, "bias_regularizer": null, "padding": "same", "bias_initializer": {"config": {}, "class_name": "Zeros"}, "name": "residual_1_7_conv_block", "dilation_rate": [1, 1], "activity_regularizer": null, "kernel_constraint": null, "kernel_size": [3, 3], "kernel_regularizer": null, "trainable": true, "bias_constraint": null, "strides": [1, 1], "filters": 256}, "inbound_nodes": [[["6_relu", 0, 0, {}]]], "name": "residual_1_7_conv_block", "class_name": "Conv2D"}, {"config": {"momentum": 0.99, "axis": 1, "beta_initializer": {"config": {}, "class_name": "Zeros"}, "moving_mean_initializer": {"config": {}, "class_name": "Zeros"}, "epsilon": 0.001, "gamma_constraint": null, "name": "residual_1_7_batch_norm", "center": true, "gamma_initializer": {"config": {}, "class_name": "Ones"}, "gamma_regularizer": null, "scale": true, "trainable": true, "beta_constraint": null, "moving_variance_initializer": {"config": {}, "class_name": "Ones"}, "beta_regularizer": null}, "inbound_nodes": [[["residual_1_7_conv_block", 0, 0, {}]]], "name": "residual_1_7_batch_norm", "class_name": "BatchNormalization"}, {"config": {"trainable": true, "name": "residual_1_7_relu", "activation": "relu"}, "inbound_nodes": [[["residual_1_7_batch_norm", 0, 0, {}]]], "name": "residual_1_7_relu", "class_name": "Activation"}, {"config": {"activation": "linear", "data_format": "channels_last", "use_bias": true, "kernel_initializer": {"config": {"scale": 2.0, "mode": "fan_in", "distribution": "normal", "seed": null}, "class_name": "VarianceScaling"}, "bias_regularizer": null, "padding": "same", "bias_initializer": {"config": {}, "class_name": "Zeros"}, "name": "residual_2_7_conv_block", "dilation_rate": [1, 1], "activity_regularizer": null, "kernel_constraint": null, "kernel_size": [3, 3], "kernel_regularizer": null, "trainable": true, "bias_constraint": null, "strides": [1, 1], "filters": 256}, "inbound_nodes": [[["residual_1_7_relu", 0, 0, {}]]], "name": "residual_2_7_conv_block", "class_name": "Conv2D"}, {"config": {"momentum": 0.99, "axis": 1, "beta_initializer": {"config": {}, "class_name": "Zeros"}, "moving_mean_initializer": {"config": {}, "class_name": "Zeros"}, "epsilon": 0.001, "gamma_constraint": null, "name": "residual_2_7_batch_norm", "center": true, "gamma_initializer": {"config": {}, "class_name": "Ones"}, "gamma_regularizer": null, "scale": true, "trainable": true, "beta_constraint": null, "moving_variance_initializer": {"config": {}, "class_name": "Ones"}, "beta_regularizer": null}, "inbound_nodes": [[["residual_2_7_conv_block", 0, 0, {}]]], "name": "residual_2_7_batch_norm", "class_name": "BatchNormalization"}, {"config": {"trainable": true, "name": "add_7"}, "inbound_nodes": [[["6_relu", 0, 0, {}], ["residual_2_7_batch_norm", 0, 0, {}]]], "name": "add_7", "class_name": "Add"}, {"config": {"trainable": true, "name": "7_relu", "activation": "relu"}, "inbound_nodes": [[["add_7", 0, 0, {}]]], "name": "7_relu", "class_name": "Activation"}, {"config": {"activation": "linear", "data_format": "channels_last", "use_bias": true, "kernel_initializer": {"config": {"scale": 2.0, "mode": "fan_in", "distribution": "normal", "seed": null}, "class_name": "VarianceScaling"}, "bias_regularizer": null, "padding": "same", "bias_initializer": {"config": {}, "class_name": "Zeros"}, "name": "residual_1_8_conv_block", "dilation_rate": [1, 1], "activity_regularizer": null, "kernel_constraint": null, "kernel_size": [3, 3], "kernel_regularizer": null, "trainable": true, "bias_constraint": null, "strides": [1, 1], "filters": 256}, "inbound_nodes": [[["7_relu", 0, 0, {}]]], "name": "residual_1_8_conv_block", "class_name": "Conv2D"}, {"config": {"momentum": 0.99, "axis": 1, "beta_initializer": {"config": {}, "class_name": "Zeros"}, "moving_mean_initializer": {"config": {}, "class_name": "Zeros"}, "epsilon": 0.001, "gamma_constraint": null, "name": "residual_1_8_batch_norm", "center": true, "gamma_initializer": {"config": {}, "class_name": "Ones"}, "gamma_regularizer": null, "scale": true, "trainable": true, "beta_constraint": null, "moving_variance_initializer": {"config": {}, "class_name": "Ones"}, "beta_regularizer": null}, "inbound_nodes": [[["residual_1_8_conv_block", 0, 0, {}]]], "name": "residual_1_8_batch_norm", "class_name": "BatchNormalization"}, {"config": {"trainable": true, "name": "residual_1_8_relu", "activation": "relu"}, "inbound_nodes": [[["residual_1_8_batch_norm", 0, 0, {}]]], "name": "residual_1_8_relu", "class_name": "Activation"}, {"config": {"activation": "linear", "data_format": "channels_last", "use_bias": true, "kernel_initializer": {"config": {"scale": 2.0, "mode": "fan_in", "distribution": "normal", "seed": null}, "class_name": "VarianceScaling"}, "bias_regularizer": null, "padding": "same", "bias_initializer": {"config": {}, "class_name": "Zeros"}, "name": "residual_2_8_conv_block", "dilation_rate": [1, 1], "activity_regularizer": null, "kernel_constraint": null, "kernel_size": [3, 3], "kernel_regularizer": null, "trainable": true, "bias_constraint": null, "strides": [1, 1], "filters": 256}, "inbound_nodes": [[["residual_1_8_relu", 0, 0, {}]]], "name": "residual_2_8_conv_block", "class_name": "Conv2D"}, {"config": {"momentum": 0.99, "axis": 1, "beta_initializer": {"config": {}, "class_name": "Zeros"}, "moving_mean_initializer": {"config": {}, "class_name": "Zeros"}, "epsilon": 0.001, "gamma_constraint": null, "name": "residual_2_8_batch_norm", "center": true, "gamma_initializer": {"config": {}, "class_name": "Ones"}, "gamma_regularizer": null, "scale": true, "trainable": true, "beta_constraint": null, "moving_variance_initializer": {"config": {}, "class_name": "Ones"}, "beta_regularizer": null}, "inbound_nodes": [[["residual_2_8_conv_block", 0, 0, {}]]], "name": "residual_2_8_batch_norm", "class_name": "BatchNormalization"}, {"config": {"trainable": true, "name": "add_8"}, "inbound_nodes": [[["7_relu", 0, 0, {}], ["residual_2_8_batch_norm", 0, 0, {}]]], "name": "add_8", "class_name": "Add"}, {"config": {"trainable": true, "name": "8_relu", "activation": "relu"}, "inbound_nodes": [[["add_8", 0, 0, {}]]], "name": "8_relu", "class_name": "Activation"}, {"config": {"activation": "linear", "data_format": "channels_last", "use_bias": true, "kernel_initializer": {"config": {"scale": 2.0, "mode": "fan_in", "distribution": "normal", "seed": null}, "class_name": "VarianceScaling"}, "bias_regularizer": null, "padding": "same", "bias_initializer": {"config": {}, "class_name": "Zeros"}, "name": "residual_1_9_conv_block", "dilation_rate": [1, 1], "activity_regularizer": null, "kernel_constraint": null, "kernel_size": [3, 3], "kernel_regularizer": null, "trainable": true, "bias_constraint": null, "strides": [1, 1], "filters": 256}, "inbound_nodes": [[["8_relu", 0, 0, {}]]], "name": "residual_1_9_conv_block", "class_name": "Conv2D"}, {"config": {"momentum": 0.99, "axis": 1, "beta_initializer": {"config": {}, "class_name": "Zeros"}, "moving_mean_initializer": {"config": {}, "class_name": "Zeros"}, "epsilon": 0.001, "gamma_constraint": null, "name": "residual_1_9_batch_norm", "center": true, "gamma_initializer": {"config": {}, "class_name": "Ones"}, "gamma_regularizer": null, "scale": true, "trainable": true, "beta_constraint": null, "moving_variance_initializer": {"config": {}, "class_name": "Ones"}, "beta_regularizer": null}, "inbound_nodes": [[["residual_1_9_conv_block", 0, 0, {}]]], "name": "residual_1_9_batch_norm", "class_name": "BatchNormalization"}, {"config": {"trainable": true, "name": "residual_1_9_relu", "activation": "relu"}, "inbound_nodes": [[["residual_1_9_batch_norm", 0, 0, {}]]], "name": "residual_1_9_relu", "class_name": "Activation"}, {"config": {"activation": "linear", "data_format": "channels_last", "use_bias": true, "kernel_initializer": {"config": {"scale": 2.0, "mode": "fan_in", "distribution": "normal", "seed": null}, "class_name": "VarianceScaling"}, "bias_regularizer": null, "padding": "same", "bias_initializer": {"config": {}, "class_name": "Zeros"}, "name": "residual_2_9_conv_block", "dilation_rate": [1, 1], "activity_regularizer": null, "kernel_constraint": null, "kernel_size": [3, 3], "kernel_regularizer": null, "trainable": true, "bias_constraint": null, "strides": [1, 1], "filters": 256}, "inbound_nodes": [[["residual_1_9_relu", 0, 0, {}]]], "name": "residual_2_9_conv_block", "class_name": "Conv2D"}, {"config": {"momentum": 0.99, "axis": 1, "beta_initializer": {"config": {}, "class_name": "Zeros"}, "moving_mean_initializer": {"config": {}, "class_name": "Zeros"}, "epsilon": 0.001, "gamma_constraint": null, "name": "residual_2_9_batch_norm", "center": true, "gamma_initializer": {"config": {}, "class_name": "Ones"}, "gamma_regularizer": null, "scale": true, "trainable": true, "beta_constraint": null, "moving_variance_initializer": {"config": {}, "class_name": "Ones"}, "beta_regularizer": null}, "inbound_nodes": [[["residual_2_9_conv_block", 0, 0, {}]]], "name": "residual_2_9_batch_norm", "class_name": "BatchNormalization"}, {"config": {"trainable": true, "name": "add_9"}, "inbound_nodes": [[["8_relu", 0, 0, {}], ["residual_2_9_batch_norm", 0, 0, {}]]], "name": "add_9", "class_name": "Add"}, {"config": {"trainable": true, "name": "9_relu", "activation": "relu"}, "inbound_nodes": [[["add_9", 0, 0, {}]]], "name": "9_relu", "class_name": "Activation"}, {"config": {"activation": "linear", "data_format": "channels_last", "use_bias": true, "kernel_initializer": {"config": {"scale": 2.0, "mode": "fan_in", "distribution": "normal", "seed": null}, "class_name": "VarianceScaling"}, "bias_regularizer": null, "padding": "same", "bias_initializer": {"config": {}, "class_name": "Zeros"}, "name": "residual_1_10_conv_block", "dilation_rate": [1, 1], "activity_regularizer": null, "kernel_constraint": null, "kernel_size": [3, 3], "kernel_regularizer": null, "trainable": true, "bias_constraint": null, "strides": [1, 1], "filters": 256}, "inbound_nodes": [[["9_relu", 0, 0, {}]]], "name": "residual_1_10_conv_block", "class_name": "Conv2D"}, {"config": {"momentum": 0.99, "axis": 1, "beta_initializer": {"config": {}, "class_name": "Zeros"}, "moving_mean_initializer": {"config": {}, "class_name": "Zeros"}, "epsilon": 0.001, "gamma_constraint": null, "name": "residual_1_10_batch_norm", "center": true, "gamma_initializer": {"config": {}, "class_name": "Ones"}, "gamma_regularizer": null, "scale": true, "trainable": true, "beta_constraint": null, "moving_variance_initializer": {"config": {}, "class_name": "Ones"}, "beta_regularizer": null}, "inbound_nodes": [[["residual_1_10_conv_block", 0, 0, {}]]], "name": "residual_1_10_batch_norm", "class_name": "BatchNormalization"}, {"config": {"trainable": true, "name": "residual_1_10_relu", "activation": "relu"}, "inbound_nodes": [[["residual_1_10_batch_norm", 0, 0, {}]]], "name": "residual_1_10_relu", "class_name": "Activation"}, {"config": {"activation": "linear", "data_format": "channels_last", "use_bias": true, "kernel_initializer": {"config": {"scale": 2.0, "mode": "fan_in", "distribution": "normal", "seed": null}, "class_name": "VarianceScaling"}, "bias_regularizer": null, "padding": "same", "bias_initializer": {"config": {}, "class_name": "Zeros"}, "name": "residual_2_10_conv_block", "dilation_rate": [1, 1], "activity_regularizer": null, "kernel_constraint": null, "kernel_size": [3, 3], "kernel_regularizer": null, "trainable": true, "bias_constraint": null, "strides": [1, 1], "filters": 256}, "inbound_nodes": [[["residual_1_10_relu", 0, 0, {}]]], "name": "residual_2_10_conv_block", "class_name": "Conv2D"}, {"config": {"momentum": 0.99, "axis": 1, "beta_initializer": {"config": {}, "class_name": "Zeros"}, "moving_mean_initializer": {"config": {}, "class_name": "Zeros"}, "epsilon": 0.001, "gamma_constraint": null, "name": "residual_2_10_batch_norm", "center": true, "gamma_initializer": {"config": {}, "class_name": "Ones"}, "gamma_regularizer": null, "scale": true, "trainable": true, "beta_constraint": null, "moving_variance_initializer": {"config": {}, "class_name": "Ones"}, "beta_regularizer": null}, "inbound_nodes": [[["residual_2_10_conv_block", 0, 0, {}]]], "name": "residual_2_10_batch_norm", "class_name": "BatchNormalization"}, {"config": {"trainable": true, "name": "add_10"}, "inbound_nodes": [[["9_relu", 0, 0, {}], ["residual_2_10_batch_norm", 0, 0, {}]]], "name": "add_10", "class_name": "Add"}, {"config": {"trainable": true, "name": "10_relu", "activation": "relu"}, "inbound_nodes": [[["add_10", 0, 0, {}]]], "name": "10_relu", "class_name": "Activation"}, {"config": {"activation": "linear", "data_format": "channels_last", "use_bias": true, "kernel_initializer": {"config": {"scale": 2.0, "mode": "fan_in", "distribution": "normal", "seed": null}, "class_name": "VarianceScaling"}, "bias_regularizer": null, "padding": "same", "bias_initializer": {"config": {}, "class_name": "Zeros"}, "name": "residual_1_11_conv_block", "dilation_rate": [1, 1], "activity_regularizer": null, "kernel_constraint": null, "kernel_size": [3, 3], "kernel_regularizer": null, "trainable": true, "bias_constraint": null, "strides": [1, 1], "filters": 256}, "inbound_nodes": [[["10_relu", 0, 0, {}]]], "name": "residual_1_11_conv_block", "class_name": "Conv2D"}, {"config": {"momentum": 0.99, "axis": 1, "beta_initializer": {"config": {}, "class_name": "Zeros"}, "moving_mean_initializer": {"config": {}, "class_name": "Zeros"}, "epsilon": 0.001, "gamma_constraint": null, "name": "residual_1_11_batch_norm", "center": true, "gamma_initializer": {"config": {}, "class_name": "Ones"}, "gamma_regularizer": null, "scale": true, "trainable": true, "beta_constraint": null, "moving_variance_initializer": {"config": {}, "class_name": "Ones"}, "beta_regularizer": null}, "inbound_nodes": [[["residual_1_11_conv_block", 0, 0, {}]]], "name": "residual_1_11_batch_norm", "class_name": "BatchNormalization"}, {"config": {"trainable": true, "name": "residual_1_11_relu", "activation": "relu"}, "inbound_nodes": [[["residual_1_11_batch_norm", 0, 0, {}]]], "name": "residual_1_11_relu", "class_name": "Activation"}, {"config": {"activation": "linear", "data_format": "channels_last", "use_bias": true, "kernel_initializer": {"config": {"scale": 2.0, "mode": "fan_in", "distribution": "normal", "seed": null}, "class_name": "VarianceScaling"}, "bias_regularizer": null, "padding": "same", "bias_initializer": {"config": {}, "class_name": "Zeros"}, "name": "residual_2_11_conv_block", "dilation_rate": [1, 1], "activity_regularizer": null, "kernel_constraint": null, "kernel_size": [3, 3], "kernel_regularizer": null, "trainable": true, "bias_constraint": null, "strides": [1, 1], "filters": 256}, "inbound_nodes": [[["residual_1_11_relu", 0, 0, {}]]], "name": "residual_2_11_conv_block", "class_name": "Conv2D"}, {"config": {"momentum": 0.99, "axis": 1, "beta_initializer": {"config": {}, "class_name": "Zeros"}, "moving_mean_initializer": {"config": {}, "class_name": "Zeros"}, "epsilon": 0.001, "gamma_constraint": null, "name": "residual_2_11_batch_norm", "center": true, "gamma_initializer": {"config": {}, "class_name": "Ones"}, "gamma_regularizer": null, "scale": true, "trainable": true, "beta_constraint": null, "moving_variance_initializer": {"config": {}, "class_name": "Ones"}, "beta_regularizer": null}, "inbound_nodes": [[["residual_2_11_conv_block", 0, 0, {}]]], "name": "residual_2_11_batch_norm", "class_name": "BatchNormalization"}, {"config": {"trainable": true, "name": "add_11"}, "inbound_nodes": [[["10_relu", 0, 0, {}], ["residual_2_11_batch_norm", 0, 0, {}]]], "name": "add_11", "class_name": "Add"}, {"config": {"trainable": true, "name": "11_relu", "activation": "relu"}, "inbound_nodes": [[["add_11", 0, 0, {}]]], "name": "11_relu", "class_name": "Activation"}, {"config": {"activation": "linear", "data_format": "channels_last", "use_bias": true, "kernel_initializer": {"config": {"scale": 2.0, "mode": "fan_in", "distribution": "normal", "seed": null}, "class_name": "VarianceScaling"}, "bias_regularizer": null, "padding": "same", "bias_initializer": {"config": {}, "class_name": "Zeros"}, "name": "residual_1_12_conv_block", "dilation_rate": [1, 1], "activity_regularizer": null, "kernel_constraint": null, "kernel_size": [3, 3], "kernel_regularizer": null, "trainable": true, "bias_constraint": null, "strides": [1, 1], "filters": 256}, "inbound_nodes": [[["11_relu", 0, 0, {}]]], "name": "residual_1_12_conv_block", "class_name": "Conv2D"}, {"config": {"momentum": 0.99, "axis": 1, "beta_initializer": {"config": {}, "class_name": "Zeros"}, "moving_mean_initializer": {"config": {}, "class_name": "Zeros"}, "epsilon": 0.001, "gamma_constraint": null, "name": "residual_1_12_batch_norm", "center": true, "gamma_initializer": {"config": {}, "class_name": "Ones"}, "gamma_regularizer": null, "scale": true, "trainable": true, "beta_constraint": null, "moving_variance_initializer": {"config": {}, "class_name": "Ones"}, "beta_regularizer": null}, "inbound_nodes": [[["residual_1_12_conv_block", 0, 0, {}]]], "name": "residual_1_12_batch_norm", "class_name": "BatchNormalization"}, {"config": {"trainable": true, "name": "residual_1_12_relu", "activation": "relu"}, "inbound_nodes": [[["residual_1_12_batch_norm", 0, 0, {}]]], "name": "residual_1_12_relu", "class_name": "Activation"}, {"config": {"activation": "linear", "data_format": "channels_last", "use_bias": true, "kernel_initializer": {"config": {"scale": 2.0, "mode": "fan_in", "distribution": "normal", "seed": null}, "class_name": "VarianceScaling"}, "bias_regularizer": null, "padding": "same", "bias_initializer": {"config": {}, "class_name": "Zeros"}, "name": "residual_2_12_conv_block", "dilation_rate": [1, 1], "activity_regularizer": null, "kernel_constraint": null, "kernel_size": [3, 3], "kernel_regularizer": null, "trainable": true, "bias_constraint": null, "strides": [1, 1], "filters": 256}, "inbound_nodes": [[["residual_1_12_relu", 0, 0, {}]]], "name": "residual_2_12_conv_block", "class_name": "Conv2D"}, {"config": {"momentum": 0.99, "axis": 1, "beta_initializer": {"config": {}, "class_name": "Zeros"}, "moving_mean_initializer": {"config": {}, "class_name": "Zeros"}, "epsilon": 0.001, "gamma_constraint": null, "name": "residual_2_12_batch_norm", "center": true, "gamma_initializer": {"config": {}, "class_name": "Ones"}, "gamma_regularizer": null, "scale": true, "trainable": true, "beta_constraint": null, "moving_variance_initializer": {"config": {}, "class_name": "Ones"}, "beta_regularizer": null}, "inbound_nodes": [[["residual_2_12_conv_block", 0, 0, {}]]], "name": "residual_2_12_batch_norm", "class_name": "BatchNormalization"}, {"config": {"trainable": true, "name": "add_12"}, "inbound_nodes": [[["11_relu", 0, 0, {}], ["residual_2_12_batch_norm", 0, 0, {}]]], "name": "add_12", "class_name": "Add"}, {"config": {"trainable": true, "name": "12_relu", "activation": "relu"}, "inbound_nodes": [[["add_12", 0, 0, {}]]], "name": "12_relu", "class_name": "Activation"}, {"config": {"activation": "linear", "data_format": "channels_last", "use_bias": true, "kernel_initializer": {"config": {"scale": 2.0, "mode": "fan_in", "distribution": "normal", "seed": null}, "class_name": "VarianceScaling"}, "bias_regularizer": null, "padding": "same", "bias_initializer": {"config": {}, "class_name": "Zeros"}, "name": "residual_1_13_conv_block", "dilation_rate": [1, 1], "activity_regularizer": null, "kernel_constraint": null, "kernel_size": [3, 3], "kernel_regularizer": null, "trainable": true, "bias_constraint": null, "strides": [1, 1], "filters": 256}, "inbound_nodes": [[["12_relu", 0, 0, {}]]], "name": "residual_1_13_conv_block", "class_name": "Conv2D"}, {"config": {"momentum": 0.99, "axis": 1, "beta_initializer": {"config": {}, "class_name": "Zeros"}, "moving_mean_initializer": {"config": {}, "class_name": "Zeros"}, "epsilon": 0.001, "gamma_constraint": null, "name": "residual_1_13_batch_norm", "center": true, "gamma_initializer": {"config": {}, "class_name": "Ones"}, "gamma_regularizer": null, "scale": true, "trainable": true, "beta_constraint": null, "moving_variance_initializer": {"config": {}, "class_name": "Ones"}, "beta_regularizer": null}, "inbound_nodes": [[["residual_1_13_conv_block", 0, 0, {}]]], "name": "residual_1_13_batch_norm", "class_name": "BatchNormalization"}, {"config": {"trainable": true, "name": "residual_1_13_relu", "activation": "relu"}, "inbound_nodes": [[["residual_1_13_batch_norm", 0, 0, {}]]], "name": "residual_1_13_relu", "class_name": "Activation"}, {"config": {"activation": "linear", "data_format": "channels_last", "use_bias": true, "kernel_initializer": {"config": {"scale": 2.0, "mode": "fan_in", "distribution": "normal", "seed": null}, "class_name": "VarianceScaling"}, "bias_regularizer": null, "padding": "same", "bias_initializer": {"config": {}, "class_name": "Zeros"}, "name": "residual_2_13_conv_block", "dilation_rate": [1, 1], "activity_regularizer": null, "kernel_constraint": null, "kernel_size": [3, 3], "kernel_regularizer": null, "trainable": true, "bias_constraint": null, "strides": [1, 1], "filters": 256}, "inbound_nodes": [[["residual_1_13_relu", 0, 0, {}]]], "name": "residual_2_13_conv_block", "class_name": "Conv2D"}, {"config": {"momentum": 0.99, "axis": 1, "beta_initializer": {"config": {}, "class_name": "Zeros"}, "moving_mean_initializer": {"config": {}, "class_name": "Zeros"}, "epsilon": 0.001, "gamma_constraint": null, "name": "residual_2_13_batch_norm", "center": true, "gamma_initializer": {"config": {}, "class_name": "Ones"}, "gamma_regularizer": null, "scale": true, "trainable": true, "beta_constraint": null, "moving_variance_initializer": {"config": {}, "class_name": "Ones"}, "beta_regularizer": null}, "inbound_nodes": [[["residual_2_13_conv_block", 0, 0, {}]]], "name": "residual_2_13_batch_norm", "class_name": "BatchNormalization"}, {"config": {"trainable": true, "name": "add_13"}, "inbound_nodes": [[["12_relu", 0, 0, {}], ["residual_2_13_batch_norm", 0, 0, {}]]], "name": "add_13", "class_name": "Add"}, {"config": {"trainable": true, "name": "13_relu", "activation": "relu"}, "inbound_nodes": [[["add_13", 0, 0, {}]]], "name": "13_relu", "class_name": "Activation"}, {"config": {"activation": "linear", "data_format": "channels_last", "use_bias": true, "kernel_initializer": {"config": {"scale": 2.0, "mode": "fan_in", "distribution": "normal", "seed": null}, "class_name": "VarianceScaling"}, "bias_regularizer": null, "padding": "same", "bias_initializer": {"config": {}, "class_name": "Zeros"}, "name": "residual_1_14_conv_block", "dilation_rate": [1, 1], "activity_regularizer": null, "kernel_constraint": null, "kernel_size": [3, 3], "kernel_regularizer": null, "trainable": true, "bias_constraint": null, "strides": [1, 1], "filters": 256}, "inbound_nodes": [[["13_relu", 0, 0, {}]]], "name": "residual_1_14_conv_block", "class_name": "Conv2D"}, {"config": {"momentum": 0.99, "axis": 1, "beta_initializer": {"config": {}, "class_name": "Zeros"}, "moving_mean_initializer": {"config": {}, "class_name": "Zeros"}, "epsilon": 0.001, "gamma_constraint": null, "name": "residual_1_14_batch_norm", "center": true, "gamma_initializer": {"config": {}, "class_name": "Ones"}, "gamma_regularizer": null, "scale": true, "trainable": true, "beta_constraint": null, "moving_variance_initializer": {"config": {}, "class_name": "Ones"}, "beta_regularizer": null}, "inbound_nodes": [[["residual_1_14_conv_block", 0, 0, {}]]], "name": "residual_1_14_batch_norm", "class_name": "BatchNormalization"}, {"config": {"trainable": true, "name": "residual_1_14_relu", "activation": "relu"}, "inbound_nodes": [[["residual_1_14_batch_norm", 0, 0, {}]]], "name": "residual_1_14_relu", "class_name": "Activation"}, {"config": {"activation": "linear", "data_format": "channels_last", "use_bias": true, "kernel_initializer": {"config": {"scale": 2.0, "mode": "fan_in", "distribution": "normal", "seed": null}, "class_name": "VarianceScaling"}, "bias_regularizer": null, "padding": "same", "bias_initializer": {"config": {}, "class_name": "Zeros"}, "name": "residual_2_14_conv_block", "dilation_rate": [1, 1], "activity_regularizer": null, "kernel_constraint": null, "kernel_size": [3, 3], "kernel_regularizer": null, "trainable": true, "bias_constraint": null, "strides": [1, 1], "filters": 256}, "inbound_nodes": [[["residual_1_14_relu", 0, 0, {}]]], "name": "residual_2_14_conv_block", "class_name": "Conv2D"}, {"config": {"momentum": 0.99, "axis": 1, "beta_initializer": {"config": {}, "class_name": "Zeros"}, "moving_mean_initializer": {"config": {}, "class_name": "Zeros"}, "epsilon": 0.001, "gamma_constraint": null, "name": "residual_2_14_batch_norm", "center": true, "gamma_initializer": {"config": {}, "class_name": "Ones"}, "gamma_regularizer": null, "scale": true, "trainable": true, "beta_constraint": null, "moving_variance_initializer": {"config": {}, "class_name": "Ones"}, "beta_regularizer": null}, "inbound_nodes": [[["residual_2_14_conv_block", 0, 0, {}]]], "name": "residual_2_14_batch_norm", "class_name": "BatchNormalization"}, {"config": {"trainable": true, "name": "add_14"}, "inbound_nodes": [[["13_relu", 0, 0, {}], ["residual_2_14_batch_norm", 0, 0, {}]]], "name": "add_14", "class_name": "Add"}, {"config": {"trainable": true, "name": "14_relu", "activation": "relu"}, "inbound_nodes": [[["add_14", 0, 0, {}]]], "name": "14_relu", "class_name": "Activation"}, {"config": {"activation": "linear", "data_format": "channels_last", "use_bias": true, "kernel_initializer": {"config": {"scale": 2.0, "mode": "fan_in", "distribution": "normal", "seed": null}, "class_name": "VarianceScaling"}, "bias_regularizer": null, "padding": "same", "bias_initializer": {"config": {}, "class_name": "Zeros"}, "name": "residual_1_15_conv_block", "dilation_rate": [1, 1], "activity_regularizer": null, "kernel_constraint": null, "kernel_size": [3, 3], "kernel_regularizer": null, "trainable": true, "bias_constraint": null, "strides": [1, 1], "filters": 256}, "inbound_nodes": [[["14_relu", 0, 0, {}]]], "name": "residual_1_15_conv_block", "class_name": "Conv2D"}, {"config": {"momentum": 0.99, "axis": 1, "beta_initializer": {"config": {}, "class_name": "Zeros"}, "moving_mean_initializer": {"config": {}, "class_name": "Zeros"}, "epsilon": 0.001, "gamma_constraint": null, "name": "residual_1_15_batch_norm", "center": true, "gamma_initializer": {"config": {}, "class_name": "Ones"}, "gamma_regularizer": null, "scale": true, "trainable": true, "beta_constraint": null, "moving_variance_initializer": {"config": {}, "class_name": "Ones"}, "beta_regularizer": null}, "inbound_nodes": [[["residual_1_15_conv_block", 0, 0, {}]]], "name": "residual_1_15_batch_norm", "class_name": "BatchNormalization"}, {"config": {"trainable": true, "name": "residual_1_15_relu", "activation": "relu"}, "inbound_nodes": [[["residual_1_15_batch_norm", 0, 0, {}]]], "name": "residual_1_15_relu", "class_name": "Activation"}, {"config": {"activation": "linear", "data_format": "channels_last", "use_bias": true, "kernel_initializer": {"config": {"scale": 2.0, "mode": "fan_in", "distribution": "normal", "seed": null}, "class_name": "VarianceScaling"}, "bias_regularizer": null, "padding": "same", "bias_initializer": {"config": {}, "class_name": "Zeros"}, "name": "residual_2_15_conv_block", "dilation_rate": [1, 1], "activity_regularizer": null, "kernel_constraint": null, "kernel_size": [3, 3], "kernel_regularizer": null, "trainable": true, "bias_constraint": null, "strides": [1, 1], "filters": 256}, "inbound_nodes": [[["residual_1_15_relu", 0, 0, {}]]], "name": "residual_2_15_conv_block", "class_name": "Conv2D"}, {"config": {"momentum": 0.99, "axis": 1, "beta_initializer": {"config": {}, "class_name": "Zeros"}, "moving_mean_initializer": {"config": {}, "class_name": "Zeros"}, "epsilon": 0.001, "gamma_constraint": null, "name": "residual_2_15_batch_norm", "center": true, "gamma_initializer": {"config": {}, "class_name": "Ones"}, "gamma_regularizer": null, "scale": true, "trainable": true, "beta_constraint": null, "moving_variance_initializer": {"config": {}, "class_name": "Ones"}, "beta_regularizer": null}, "inbound_nodes": [[["residual_2_15_conv_block", 0, 0, {}]]], "name": "residual_2_15_batch_norm", "class_name": "BatchNormalization"}, {"config": {"trainable": true, "name": "add_15"}, "inbound_nodes": [[["14_relu", 0, 0, {}], ["residual_2_15_batch_norm", 0, 0, {}]]], "name": "add_15", "class_name": "Add"}, {"config": {"trainable": true, "name": "15_relu", "activation": "relu"}, "inbound_nodes": [[["add_15", 0, 0, {}]]], "name": "15_relu", "class_name": "Activation"}, {"config": {"activation": "linear", "data_format": "channels_last", "use_bias": true, "kernel_initializer": {"config": {"scale": 2.0, "mode": "fan_in", "distribution": "normal", "seed": null}, "class_name": "VarianceScaling"}, "bias_regularizer": null, "padding": "same", "bias_initializer": {"config": {}, "class_name": "Zeros"}, "name": "residual_1_16_conv_block", "dilation_rate": [1, 1], "activity_regularizer": null, "kernel_constraint": null, "kernel_size": [3, 3], "kernel_regularizer": null, "trainable": true, "bias_constraint": null, "strides": [1, 1], "filters": 256}, "inbound_nodes": [[["15_relu", 0, 0, {}]]], "name": "residual_1_16_conv_block", "class_name": "Conv2D"}, {"config": {"momentum": 0.99, "axis": 1, "beta_initializer": {"config": {}, "class_name": "Zeros"}, "moving_mean_initializer": {"config": {}, "class_name": "Zeros"}, "epsilon": 0.001, "gamma_constraint": null, "name": "residual_1_16_batch_norm", "center": true, "gamma_initializer": {"config": {}, "class_name": "Ones"}, "gamma_regularizer": null, "scale": true, "trainable": true, "beta_constraint": null, "moving_variance_initializer": {"config": {}, "class_name": "Ones"}, "beta_regularizer": null}, "inbound_nodes": [[["residual_1_16_conv_block", 0, 0, {}]]], "name": "residual_1_16_batch_norm", "class_name": "BatchNormalization"}, {"config": {"trainable": true, "name": "residual_1_16_relu", "activation": "relu"}, "inbound_nodes": [[["residual_1_16_batch_norm", 0, 0, {}]]], "name": "residual_1_16_relu", "class_name": "Activation"}, {"config": {"activation": "linear", "data_format": "channels_last", "use_bias": true, "kernel_initializer": {"config": {"scale": 2.0, "mode": "fan_in", "distribution": "normal", "seed": null}, "class_name": "VarianceScaling"}, "bias_regularizer": null, "padding": "same", "bias_initializer": {"config": {}, "class_name": "Zeros"}, "name": "residual_2_16_conv_block", "dilation_rate": [1, 1], "activity_regularizer": null, "kernel_constraint": null, "kernel_size": [3, 3], "kernel_regularizer": null, "trainable": true, "bias_constraint": null, "strides": [1, 1], "filters": 256}, "inbound_nodes": [[["residual_1_16_relu", 0, 0, {}]]], "name": "residual_2_16_conv_block", "class_name": "Conv2D"}, {"config": {"momentum": 0.99, "axis": 1, "beta_initializer": {"config": {}, "class_name": "Zeros"}, "moving_mean_initializer": {"config": {}, "class_name": "Zeros"}, "epsilon": 0.001, "gamma_constraint": null, "name": "residual_2_16_batch_norm", "center": true, "gamma_initializer": {"config": {}, "class_name": "Ones"}, "gamma_regularizer": null, "scale": true, "trainable": true, "beta_constraint": null, "moving_variance_initializer": {"config": {}, "class_name": "Ones"}, "beta_regularizer": null}, "inbound_nodes": [[["residual_2_16_conv_block", 0, 0, {}]]], "name": "residual_2_16_batch_norm", "class_name": "BatchNormalization"}, {"config": {"trainable": true, "name": "add_16"}, "inbound_nodes": [[["15_relu", 0, 0, {}], ["residual_2_16_batch_norm", 0, 0, {}]]], "name": "add_16", "class_name": "Add"}, {"config": {"trainable": true, "name": "16_relu", "activation": "relu"}, "inbound_nodes": [[["add_16", 0, 0, {}]]], "name": "16_relu", "class_name": "Activation"}, {"config": {"activation": "linear", "data_format": "channels_last", "use_bias": true, "kernel_initializer": {"config": {"scale": 2.0, "mode": "fan_in", "distribution": "normal", "seed": null}, "class_name": "VarianceScaling"}, "bias_regularizer": null, "padding": "same", "bias_initializer": {"config": {}, "class_name": "Zeros"}, "name": "residual_1_17_conv_block", "dilation_rate": [1, 1], "activity_regularizer": null, "kernel_constraint": null, "kernel_size": [3, 3], "kernel_regularizer": null, "trainable": true, "bias_constraint": null, "strides": [1, 1], "filters": 256}, "inbound_nodes": [[["16_relu", 0, 0, {}]]], "name": "residual_1_17_conv_block", "class_name": "Conv2D"}, {"config": {"momentum": 0.99, "axis": 1, "beta_initializer": {"config": {}, "class_name": "Zeros"}, "moving_mean_initializer": {"config": {}, "class_name": "Zeros"}, "epsilon": 0.001, "gamma_constraint": null, "name": "residual_1_17_batch_norm", "center": true, "gamma_initializer": {"config": {}, "class_name": "Ones"}, "gamma_regularizer": null, "scale": true, "trainable": true, "beta_constraint": null, "moving_variance_initializer": {"config": {}, "class_name": "Ones"}, "beta_regularizer": null}, "inbound_nodes": [[["residual_1_17_conv_block", 0, 0, {}]]], "name": "residual_1_17_batch_norm", "class_name": "BatchNormalization"}, {"config": {"trainable": true, "name": "residual_1_17_relu", "activation": "relu"}, "inbound_nodes": [[["residual_1_17_batch_norm", 0, 0, {}]]], "name": "residual_1_17_relu", "class_name": "Activation"}, {"config": {"activation": "linear", "data_format": "channels_last", "use_bias": true, "kernel_initializer": {"config": {"scale": 2.0, "mode": "fan_in", "distribution": "normal", "seed": null}, "class_name": "VarianceScaling"}, "bias_regularizer": null, "padding": "same", "bias_initializer": {"config": {}, "class_name": "Zeros"}, "name": "residual_2_17_conv_block", "dilation_rate": [1, 1], "activity_regularizer": null, "kernel_constraint": null, "kernel_size": [3, 3], "kernel_regularizer": null, "trainable": true, "bias_constraint": null, "strides": [1, 1], "filters": 256}, "inbound_nodes": [[["residual_1_17_relu", 0, 0, {}]]], "name": "residual_2_17_conv_block", "class_name": "Conv2D"}, {"config": {"momentum": 0.99, "axis": 1, "beta_initializer": {"config": {}, "class_name": "Zeros"}, "moving_mean_initializer": {"config": {}, "class_name": "Zeros"}, "epsilon": 0.001, "gamma_constraint": null, "name": "residual_2_17_batch_norm", "center": true, "gamma_initializer": {"config": {}, "class_name": "Ones"}, "gamma_regularizer": null, "scale": true, "trainable": true, "beta_constraint": null, "moving_variance_initializer": {"config": {}, "class_name": "Ones"}, "beta_regularizer": null}, "inbound_nodes": [[["residual_2_17_conv_block", 0, 0, {}]]], "name": "residual_2_17_batch_norm", "class_name": "BatchNormalization"}, {"config": {"trainable": true, "name": "add_17"}, "inbound_nodes": [[["16_relu", 0, 0, {}], ["residual_2_17_batch_norm", 0, 0, {}]]], "name": "add_17", "class_name": "Add"}, {"config": {"trainable": true, "name": "17_relu", "activation": "relu"}, "inbound_nodes": [[["add_17", 0, 0, {}]]], "name": "17_relu", "class_name": "Activation"}, {"config": {"activation": "linear", "data_format": "channels_last", "use_bias": true, "kernel_initializer": {"config": {"scale": 2.0, "mode": "fan_in", "distribution": "normal", "seed": null}, "class_name": "VarianceScaling"}, "bias_regularizer": null, "padding": "same", "bias_initializer": {"config": {}, "class_name": "Zeros"}, "name": "residual_1_18_conv_block", "dilation_rate": [1, 1], "activity_regularizer": null, "kernel_constraint": null, "kernel_size": [3, 3], "kernel_regularizer": null, "trainable": true, "bias_constraint": null, "strides": [1, 1], "filters": 256}, "inbound_nodes": [[["17_relu", 0, 0, {}]]], "name": "residual_1_18_conv_block", "class_name": "Conv2D"}, {"config": {"momentum": 0.99, "axis": 1, "beta_initializer": {"config": {}, "class_name": "Zeros"}, "moving_mean_initializer": {"config": {}, "class_name": "Zeros"}, "epsilon": 0.001, "gamma_constraint": null, "name": "residual_1_18_batch_norm", "center": true, "gamma_initializer": {"config": {}, "class_name": "Ones"}, "gamma_regularizer": null, "scale": true, "trainable": true, "beta_constraint": null, "moving_variance_initializer": {"config": {}, "class_name": "Ones"}, "beta_regularizer": null}, "inbound_nodes": [[["residual_1_18_conv_block", 0, 0, {}]]], "name": "residual_1_18_batch_norm", "class_name": "BatchNormalization"}, {"config": {"trainable": true, "name": "residual_1_18_relu", "activation": "relu"}, "inbound_nodes": [[["residual_1_18_batch_norm", 0, 0, {}]]], "name": "residual_1_18_relu", "class_name": "Activation"}, {"config": {"activation": "linear", "data_format": "channels_last", "use_bias": true, "kernel_initializer": {"config": {"scale": 2.0, "mode": "fan_in", "distribution": "normal", "seed": null}, "class_name": "VarianceScaling"}, "bias_regularizer": null, "padding": "same", "bias_initializer": {"config": {}, "class_name": "Zeros"}, "name": "residual_2_18_conv_block", "dilation_rate": [1, 1], "activity_regularizer": null, "kernel_constraint": null, "kernel_size": [3, 3], "kernel_regularizer": null, "trainable": true, "bias_constraint": null, "strides": [1, 1], "filters": 256}, "inbound_nodes": [[["residual_1_18_relu", 0, 0, {}]]], "name": "residual_2_18_conv_block", "class_name": "Conv2D"}, {"config": {"momentum": 0.99, "axis": 1, "beta_initializer": {"config": {}, "class_name": "Zeros"}, "moving_mean_initializer": {"config": {}, "class_name": "Zeros"}, "epsilon": 0.001, "gamma_constraint": null, "name": "residual_2_18_batch_norm", "center": true, "gamma_initializer": {"config": {}, "class_name": "Ones"}, "gamma_regularizer": null, "scale": true, "trainable": true, "beta_constraint": null, "moving_variance_initializer": {"config": {}, "class_name": "Ones"}, "beta_regularizer": null}, "inbound_nodes": [[["residual_2_18_conv_block", 0, 0, {}]]], "name": "residual_2_18_batch_norm", "class_name": "BatchNormalization"}, {"config": {"trainable": true, "name": "add_18"}, "inbound_nodes": [[["17_relu", 0, 0, {}], ["residual_2_18_batch_norm", 0, 0, {}]]], "name": "add_18", "class_name": "Add"}, {"config": {"trainable": true, "name": "18_relu", "activation": "relu"}, "inbound_nodes": [[["add_18", 0, 0, {}]]], "name": "18_relu", "class_name": "Activation"}, {"config": {"activation": "linear", "data_format": "channels_last", "use_bias": true, "kernel_initializer": {"config": {"scale": 2.0, "mode": "fan_in", "distribution": "normal", "seed": null}, "class_name": "VarianceScaling"}, "bias_regularizer": null, "padding": "same", "bias_initializer": {"config": {}, "class_name": "Zeros"}, "name": "residual_1_19_conv_block", "dilation_rate": [1, 1], "activity_regularizer": null, "kernel_constraint": null, "kernel_size": [3, 3], "kernel_regularizer": null, "trainable": true, "bias_constraint": null, "strides": [1, 1], "filters": 256}, "inbound_nodes": [[["18_relu", 0, 0, {}]]], "name": "residual_1_19_conv_block", "class_name": "Conv2D"}, {"config": {"momentum": 0.99, "axis": 1, "beta_initializer": {"config": {}, "class_name": "Zeros"}, "moving_mean_initializer": {"config": {}, "class_name": "Zeros"}, "epsilon": 0.001, "gamma_constraint": null, "name": "residual_1_19_batch_norm", "center": true, "gamma_initializer": {"config": {}, "class_name": "Ones"}, "gamma_regularizer": null, "scale": true, "trainable": true, "beta_constraint": null, "moving_variance_initializer": {"config": {}, "class_name": "Ones"}, "beta_regularizer": null}, "inbound_nodes": [[["residual_1_19_conv_block", 0, 0, {}]]], "name": "residual_1_19_batch_norm", "class_name": "BatchNormalization"}, {"config": {"trainable": true, "name": "residual_1_19_relu", "activation": "relu"}, "inbound_nodes": [[["residual_1_19_batch_norm", 0, 0, {}]]], "name": "residual_1_19_relu", "class_name": "Activation"}, {"config": {"activation": "linear", "data_format": "channels_last", "use_bias": true, "kernel_initializer": {"config": {"scale": 2.0, "mode": "fan_in", "distribution": "normal", "seed": null}, "class_name": "VarianceScaling"}, "bias_regularizer": null, "padding": "same", "bias_initializer": {"config": {}, "class_name": "Zeros"}, "name": "residual_2_19_conv_block", "dilation_rate": [1, 1], "activity_regularizer": null, "kernel_constraint": null, "kernel_size": [3, 3], "kernel_regularizer": null, "trainable": true, "bias_constraint": null, "strides": [1, 1], "filters": 256}, "inbound_nodes": [[["residual_1_19_relu", 0, 0, {}]]], "name": "residual_2_19_conv_block", "class_name": "Conv2D"}, {"config": {"momentum": 0.99, "axis": 1, "beta_initializer": {"config": {}, "class_name": "Zeros"}, "moving_mean_initializer": {"config": {}, "class_name": "Zeros"}, "epsilon": 0.001, "gamma_constraint": null, "name": "residual_2_19_batch_norm", "center": true, "gamma_initializer": {"config": {}, "class_name": "Ones"}, "gamma_regularizer": null, "scale": true, "trainable": true, "beta_constraint": null, "moving_variance_initializer": {"config": {}, "class_name": "Ones"}, "beta_regularizer": null}, "inbound_nodes": [[["residual_2_19_conv_block", 0, 0, {}]]], "name": "residual_2_19_batch_norm", "class_name": "BatchNormalization"}, {"config": {"trainable": true, "name": "add_19"}, "inbound_nodes": [[["18_relu", 0, 0, {}], ["residual_2_19_batch_norm", 0, 0, {}]]], "name": "add_19", "class_name": "Add"}, {"config": {"trainable": true, "name": "19_relu", "activation": "relu"}, "inbound_nodes": [[["add_19", 0, 0, {}]]], "name": "19_relu", "class_name": "Activation"}, {"config": {"activation": "linear", "data_format": "channels_last", "use_bias": true, "kernel_initializer": {"config": {"scale": 1.0, "mode": "fan_avg", "distribution": "uniform", "seed": null}, "class_name": "VarianceScaling"}, "bias_regularizer": null, "padding": "same", "bias_initializer": {"config": {}, "class_name": "Zeros"}, "name": "policy_head_conv_block", "dilation_rate": [1, 1], "activity_regularizer": null, "kernel_constraint": null, "kernel_size": [3, 3], "kernel_regularizer": null, "trainable": true, "bias_constraint": null, "strides": [1, 1], "filters": 2}, "inbound_nodes": [[["19_relu", 0, 0, {}]]], "name": "policy_head_conv_block", "class_name": "Conv2D"}, {"config": {"momentum": 0.99, "axis": 1, "beta_initializer": {"config": {}, "class_name": "Zeros"}, "moving_mean_initializer": {"config": {}, "class_name": "Zeros"}, "epsilon": 0.001, "gamma_constraint": null, "name": "policy_head_batch_norm", "center": true, "gamma_initializer": {"config": {}, "class_name": "Ones"}, "gamma_regularizer": null, "scale": true, "trainable": true, "beta_constraint": null, "moving_variance_initializer": {"config": {}, "class_name": "Ones"}, "beta_regularizer": null}, "inbound_nodes": [[["policy_head_conv_block", 0, 0, {}]]], "name": "policy_head_batch_norm", "class_name": "BatchNormalization"}, {"config": {"trainable": true, "name": "policy_head_relu", "activation": "relu"}, "inbound_nodes": [[["policy_head_batch_norm", 0, 0, {}]]], "name": "policy_head_relu", "class_name": "Activation"}, {"config": {"data_format": "channels_last", "trainable": true, "name": "flatten_3"}, "inbound_nodes": [[["policy_head_relu", 0, 0, {}]]], "name": "flatten_3", "class_name": "Flatten"}, {"config": {"activation": "linear", "use_bias": true, "bias_constraint": null, "bias_regularizer": null, "bias_initializer": {"config": {}, "class_name": "Zeros"}, "name": "policy_head_dense", "units": 362, "kernel_constraint": null, "kernel_regularizer": null, "trainable": true, "kernel_initializer": {"config": {"scale": 1.0, "mode": "fan_avg", "distribution": "uniform", "seed": null}, "class_name": "VarianceScaling"}, "activity_regularizer": null}, "inbound_nodes": [[["flatten_3", 0, 0, {}]]], "name": "policy_head_dense", "class_name": "Dense"}], "output_layers": [["policy_head_dense", 0, 0]], "name": "model_2", "input_layers": [["input_2", 0, 0]]}, "backend": "tensorflow", "class_name": "Model"}